mlcolvar_committor/models/model_5_z.pt (torch, 21325 bytes, 6 tensors)

mass f4 [6]
000000 1c eb b7 41 1c eb b7 41 1c eb b7 41 30 75 74 47
       22.9898 22.9898 22.9898 62581.188
000010 30 75 74 47 30 75 74 47
       62581.188 62581.188

weight f4 [32, 6]
000000 2b 33 55 3d 62 20 b7 be e5 ac 58 3d 3c a9 83 3f
       0.05205075 -0.35766894 0.05289926 1.0286021
000010 46 97 ad 3e ee 29 15 3e 6a 61 94 be 32 18 68 3e
       0.33904475 0.14566776 -0.2898057 0.2266548
000020 99 9c ab 3e 02 c0 93 bf fb f1 63 bd 41 61 05 be
       0.33517912 -1.1542971 -0.055650692 -0.1302538
000030 bb ea ac be 43 66 21 3e 1e 6e 55 be 0e 59 86 3f
       -0.33772835 0.15761666 -0.20842788 1.0495927
000040 b5 66 8b 3c 44 db 73 3e 71 39 a0 bd ae 72 b4 3d
       0.017016748 0.23814112 -0.07823456 0.08810936
000050 50 38 a4 be 8d f7 89 3d 2e d4 0b bd ed 94 f3 3d
       -0.32074213 0.0673667 -0.034137897 0.1189364
000060 dc a4 d9 3c 9d 0f 07 3e f1 c2 1c bf 97 fa 8b 3f
       0.026567869 0.1318955 -0.61234957 1.0935849
000070 1d ed c1 3e 97 8e 08 3e c2 db ff bd c0 a4 a5 be
       0.37876216 0.13335644 -0.12493087 -0.32352257
000080 cd a9 05 3e 2d e5 b5 3e 8c 11 ca 3e 0c 70 97 3e
       0.13053055 0.3552641 0.39466512 0.29577672
000090 59 d5 1a be 8c f5 f2 bd 55 2e 0d 3f a3 35 c9 bf
       -0.15120448 -0.118632406 0.5514882 -1.5719494
0000a0 90 cc e9 3e d3 41 89 3e 09 85 98 be 56 27 a7 3e
       0.4566388 0.26808032 -0.29788998 0.32647198
0000b0 61 57 63 be 68 af 8d 3f 3c c1 73 3e 12 cf a3 be
       -0.22201301 1.1069155 0.23804182 -0.3199392
0000c0 7f 59 ab be 2a f4 e6 3e 65 d1 2a 3c 04 0d 7a bf
       -0.33466718 0.45108157 0.0104259 -0.9767611
0000d0 4b a3 de 3c cf fd 90 3e b7 0c 74 be 8b d2 c0 bd
       0.027177474 0.2831864 -0.23832975 -0.09415158
0000e0 24 73 b6 3e 2a f5 9f bf 7a ea f8 bd e5 6a b2 3b
       0.3563472 -1.2496693 -0.12154098 0.0054448717
0000f0 36 21 66 3d 98 d4 d9 bd c3 46 59 be 7d 64 55 3f
       0.056184016 -0.10636252 -0.212184 0.8335646
000100 32 c2 53 3e de 74 62 be 0d be d0 3e dc c8 e0 3c
       0.20679548 -0.22114894 0.40769997 0.027439527
000110 66 8c 9b 3d 9b 7a 3d bf da a5 26 be ea 8b 90 3e
       0.07595138 -0.74015206 -0.16274205 0.28231746
000120 33 cb c4 be f0 73 ec 3d 23 e8 39 be ac a7 48 bf
       -0.3843628 0.11545551 -0.1815496 -0.78380847
000130 26 1b 85 be 08 aa 39 3d 28 9d 94 be c3 3c b0 bd
       -0.25997275 0.04532817 -0.2902615 -0.086053394
000140 36 fb e6 bd e8 03 8e bf eb ff 0a be be 14 33 be
       -0.112783834 -1.1094942 -0.13574187 -0.17488381
000150 7b 04 a5 3e fc 8c ad 3e 5c 76 53 3e 5e 70 96 bf
       0.3222998 0.33896625 0.2065062 -1.1753042
000160 7a 82 26 3e 2d d6 d8 3e 04 c7 5f 3d 1e 5c 1a be
       0.1626071 0.42350903 0.054633155 -0.15074202
000170 03 b0 36 bd b7 c4 76 3f 88 dc dc 3e 7b e2 88 be
       -0.04460145 0.96393913 0.43137002 -0.2673529
000180 ae 36 ff bd 13 af b2 be 11 75 14 3e 13 03 99 bf
       -0.12461601 -0.34899196 0.14497782 -1.1954063
000190 10 b6 29 3e 5c 07 80 3e 34 46 0e 3d 52 e9 8f 3c
       0.16573358 0.25005615 0.03473492 0.01756731
0001a0 a1 56 90 bd 5a 3d 3a 3f eb 23 e4 3e 32 09 3c be
       -0.07047773 0.72749865 0.44558653 -0.18362883
0001b0 09 6f 01 3c e4 8c 07 3c 8c 4d 22 bf 80 ba ca 3f
       0.007900008 0.008273337 -0.6339958 1.5838165
0001c0 10 2b c5 be 41 82 47 be 83 a7 78 be b5 b0 2a be
       -0.38509417 -0.19483282 -0.2428265 -0.16668971
0001d0 f8 33 70 be 7e 90 a7 3f 8b d9 57 bc 3a 53 ce 3d
       -0.23457325 1.309097 -0.013174425 0.10074468
0001e0 03 a8 b2 be c6 2b a0 3e 2f 8d 2c be 9a 77 34 3f
       -0.34893808 0.31283396 -0.16850732 0.70495
0001f0 c4 8f 06 3e fd 55 62 3b c3 97 94 3e b8 50 97 bd
       0.1314078 0.0034536116 0.29022035 -0.07388443
000200 01 1d a4 bd 13 f3 6d be 91 73 b1 be 8c f3 9d be
       -0.080133446 -0.23237257 -0.34658483 -0.30849874
000210 e6 fc 02 3d 2b 82 fa 3d a4 97 d6 be 23 a1 83 3f
       0.031979464 0.12231859 -0.41912568 1.028355
000220 64 45 0e 3e cf 93 cb bd e9 8e 53 3e 4b 71 d4 3d
       0.13893658 -0.099403016 0.20659985 0.103731714
000230 91 fe 34 3d c3 6d 95 3f 66 e1 18 be 74 f6 01 be
       0.044188086 1.1674122 -0.14929733 -0.1269167
000240 e3 a7 8f 3e f6 58 b0 be dd 48 02 3e 9c 2b 9b bf
       0.28057775 -0.34442872 0.12723108 -1.2122684
000250 76 e4 49 3e af af 2e 3e 70 b2 7e 3e 0b 2a c2 3e
       0.19716057 0.17059205 0.24872756 0.379227
000260 02 7a b0 be b9 9e a7 3f e9 f2 8c 3c 6b ee b6 bd
       -0.34468085 1.3095313 0.017205672 -0.08932193
000270 f0 a1 74 3e 55 21 b8 3e eb 39 06 bd da 4a 80 bf
       0.23889899 0.3596293 -0.03277008 -1.0022843
000280 c1 c4 a6 be c3 fc 46 be a6 cb 32 be 96 31 0a be
       -0.32571986 -0.19432358 -0.17460498 -0.13495478
000290 3b 93 e1 be 6a e1 90 3f 7e bc 34 3e 07 2a f2 3d
       -0.4405764 1.1318791 0.17650029 0.11824422
0002a0 65 6a 8a 3e 94 9d 93 be 94 f5 88 be 95 e9 98 3f
       0.27034298 -0.2883116 -0.2674986 1.1946284
0002b0 1d 09 53 3c 18 bd 8b 3d d2 cd 3f be 72 9c 8b be
       0.012880591 0.06823176 -0.18730858 -0.27267796
0002c0 da 75 78 be 31 87 5c bf 48 1c 92 be da 0e 9c 3e
       -0.24263707 -0.86143786 -0.28537202 0.3048008
0002d0 bc 06 9a 3e 6b d6 99 be b3 4f 09 be f1 5a 76 3f
       0.30083263 -0.300464 -0.13409309 0.96232516
0002e0 c1 cc 81 3e f2 8b 1c 3d 56 bc aa be a2 88 16 be
       0.25351527 0.0382194 -0.33346814 -0.14700559
0002f0 9b ef b1 3d 53 8e 4d 3f c9 19 be 3e b2 8b c6 bd
       0.08688279 0.80295295 0.37129048 -0.096946135

bias f4 [32]
000000 67 a6 9c bd d4 a8 91 3c 33 8c 7d be 2a ca b2 bd
       -0.07648926 0.017780699 -0.24760513 -0.08729966
000010 9a 8f de bd 55 cb 10 be a9 ab b4 be c2 5f 4d bd
       -0.108672336 -0.14140065 -0.35287216 -0.05014015
000020 55 8e 59 3e ff cf b3 3d 84 fd a0 bd ea 07 c8 3d
       0.21245702 0.087799065 -0.07860854 0.097671345
000030 56 f6 d4 3e f2 a8 9b 3e 55 e8 8c be 2e 43 3e be
       0.4159419 0.30402333 -0.27521005 -0.18580315
000040 9f 72 65 bd 63 ce 7d be fc 7e a7 3e 5d ff 34 be
       -0.056017514 -0.24785762 0.3271407 -0.17675538
000050 87 31 25 bd 3b a2 99 bd 43 b9 42 bd e7 57 8e 3d
       -0.040330436 -0.07501646 -0.04753996 0.0695036
000060 e0 1d 16 bd f1 09 de bd 80 03 a2 3e ee e0 9a 3c
       -0.036649585 -0.1084174 0.31643295 0.018906083
000070 3d c7 c1 bc d1 dd 7c 3e 4b f8 67 be 80 32 55 be
       -0.023654575 0.24693991 -0.2265331 -0.20820045

weight f4 [32, 32]
000000 a7 9d 63 3e bf dd 0a bf ae 8e 00 3f ac 38 fe 39
       0.22228108 -0.5424461 0.5021771 0.0004848888
000010 cc 29 eb 3e 0a 46 cc 3d f0 e9 29 bf b8 40 bc 3e
       0.45930326 0.099742964 -0.66372585 0.36768126
000020 33 78 99 bd da 9c d8 be 2c c4 bb 3e 2c e1 66 be
       -0.07493629 -0.42307168 0.36673105 -0.22546834
000030 1d 36 81 bd e6 26 bf be 09 63 5c bf 69 10 d9 3e
       -0.063091494 -0.37334365 -0.86088616 0.42395332
000040 56 f5 f6 be f4 d0 01 3e 09 89 27 3f a5 d8 9a 3e
       -0.4823405 0.12677366 0.65443474 0.30243412
000050 b3 fc 6f 3e 38 01 a9 3d 0b 54 01 3f 49 75 f6 3e
       0.23436241 0.082521856 0.50518864 0.48136356
000060 33 15 09 bf 1a c4 fe 3e 82 8e c5 be b4 7f b6 3e
       -0.5354797 0.4975899 -0.38585287 0.35644305
000070 d2 59 f2 3e 03 1c b5 be f4 da 08 3f 06 02 17 3e
       0.47334152 -0.35372934 0.53459096 0.14746866
000080 2e 72 20 3e 4f 9b 13 bf 34 31 05 3f cc 33 bc 3d
       0.15668556 -0.5765886 0.52028203 0.09189567
000090 cd 1d a6 3e c1 e1 6c 3e 2a 7e 04 bf 80 28 81 3e
       0.3244461 0.23132993 -0.5175501 0.25226212
0000a0 2e fa a4 bc 00 27 11 bf 46 2f 9d 3e a3 7a c8 be
       -0.020138826 -0.56700134 0.3070013 -0.39156064
0000b0 3a fc 67 bd 05 67 e2 be 1a 75 27 bf e1 f5 a2 3e
       -0.056637026 -0.44219223 -0.6541306 0.31828216
0000c0 f2 6a fb be 1f 5b af 3e fb fb d4 3e e6 09 c8 3e
       -0.4910503 0.34249207 0.41598496 0.39070052
0000d0 95 bf b4 3e f7 92 5c be 82 cc d7 3e 10 55 ee 3e
       0.35302415 -0.21540438 0.42148215 0.46549273
0000e0 0b 43 2e bf 1c 09 e1 3e ee 3b 92 be 87 1e f1 3e
       -0.6807105 0.43952262 -0.28561348 0.47093603
0000f0 dd 13 ef 3e 3c b0 9a be 90 a3 da 3e 4e 42 a0 3e
       0.46694842 -0.3021258 0.42702913 0.31300586
000100 fd c9 62 be b2 1d fb 3e 67 19 2b bf 4a 05 9b bd
       -0.22147365 0.49046093 -0.66835636 -0.07569368
000110 32 7d 0c bf 94 ce ba bd 25 22 75 3f b9 91 1a bf
       -0.5487853 -0.09121433 0.95755225 -0.60378605
000120 93 43 88 3e a6 be 38 3f b4 ee f6 be ac ca 04 3f
       0.26614055 0.72165906 -0.4822899 0.5187175
000130 67 82 31 3e 4c b6 0a 3f 7c 9c 5a 3f 76 73 e1 be
       0.17334901 0.5418441 0.85395026 -0.44033402
000140 8e 1d 5d 3f 01 41 c7 be 8e 0a 81 bf cd 09 27 bf
       0.8637322 -0.38916782 -1.0081346 -0.6524933
000150 dd 4a 83 be cb 31 29 3e 0f 84 10 bf d2 e9 ef be
       -0.25643054 0.16522901 -0.56451505 -0.46858078
000160 86 13 31 3f 60 66 1e bf 82 19 22 3f 82 d8 2a bf
       0.69170415 -0.6187496 0.6332017 -0.66736615
000170 68 70 4e bf 99 60 df 3e 13 9f d8 be e3 99 b7 be
       -0.8064027 0.43628386 -0.42308864 -0.35859594
000180 38 43 4a be ea 90 22 3f 80 e2 2f bf 39 d6 83 bd
       -0.19752204 0.6350237 -0.68704987 -0.06437344
000190 e5 a7 fd be 03 8a b8 3c 3d e0 57 3f 0f 40 e1 be
       -0.49542156 0.022526747 0.84326535 -0.43994185
0001a0 6b 03 63 3e e7 9f 19 3f 3b 2f bd be b7 a4 a4 3e
       0.22169273 0.60009617 -0.36950096 0.32156917
0001b0 1a e0 74 3e d0 f5 12 3f 7f 56 73 3f d8 d9 ef be
       0.23913613 0.5740633 0.9505386 -0.4684589
0001c0 bf d8 34 3f b0 8f c4 be ee 90 59 bf 7f 75 d9 be
       0.7064323 -0.38390875 -0.8498677 -0.42472455
0001d0 58 88 70 be 68 38 31 3d 0c d8 e5 be 6e 58 97 be
       -0.23489511 0.043266684 -0.44891393 -0.29559654
0001e0 68 d2 51 3f e5 c0 f9 be 3e ed f1 3e 52 d3 06 bf
       0.8196168 -0.4877998 0.47251314 -0.526662
0001f0 93 68 35 bf e5 38 8e 3e f9 af df be 0a 80 a9 be
       -0.7086269 0.27777782 -0.43688944 -0.331055
000200 c6 c5 7c be 04 45 16 3f c2 6a 23 bf e7 dc b3 3d
       -0.2468482 0.5869906 -0.63834774 0.08782368
000210 29 c7 a4 be 64 f4 f6 bd 69 d6 03 3f 09 e5 fe be
       -0.32183197 -0.120583326 0.5149904 -0.49784115
000220 1a 2f a8 3e 0d d9 f0 3e de 12 a7 be 34 33 37 3e
       0.32848436 0.47040597 -0.32631582 0.17890626
000230 cd 26 98 3e b9 be 7b 3e 39 d8 24 3f 51 cb b9 be
       0.29717103 0.24584474 0.6439243 -0.3628793
000240 a3 49 0f 3f 53 dd ce be d1 c3 2a bf 19 54 99 be
       0.55971736 -0.40403232 -0.6670504 -0.29946974
000250 bf e1 97 be ac e7 a4 bc 9b 3c ff be 46 46 03 bf
       -0.29664418 -0.020130001 -0.49850926 -0.51279104
000260 fd 54 5b 3f 74 0f b8 be 00 31 82 3e b2 78 6f be
       0.85676557 -0.3594929 0.2542801 -0.23385885
000270 4d d7 13 bf f8 7a 0a 3e f9 3f 0c bf b2 76 c8 be
       -0.577504 0.13523471 -0.54785115 -0.39153057
000280 1a 4d a0 3e e1 b9 fe be a5 d2 fa 3e 8a e3 bd bc
       0.31308824 -0.4975119 0.48988834 -0.023179788
000290 f3 08 ec 3e d8 8f 12 ba 01 1f 33 bf 95 b3 0b 3f
       0.46100578 -0.00055908924 -0.69969183 0.54570895
0002a0 3f e2 a2 be 69 ba a7 be 48 fb d9 3e 5c 60 be be
       -0.31813237 -0.32759407 0.42574525 -0.3718289
0002b0 a3 b3 3c be ce 78 ba be bc 77 4d bf b3 c8 89 3e
       -0.18427901 -0.36420292 -0.80260825 0.26910934
0002c0 b6 0c 1c bf a7 bb 93 3e f1 17 47 3f 64 95 cc 3e
       -0.60956895 0.28854105 0.77770907 0.39957726
0002d0 73 9c 9f 3e 5f 03 ae bd 69 e5 01 3f 85 f6 a3 3e
       0.3117405 -0.08496737 0.5074068 0.32024017
0002e0 ca 35 4c bf f4 9b dc 3e 6a 5c 4d be 7b 90 f8 3e
       -0.79769576 0.43087733 -0.20054784 0.4854773
0002f0 ea 7b 2d 3f da ce ad be d4 b8 e4 3e 5b fb 42 3e
       0.677672 -0.33946878 0.44672263 0.19041197
000300 74 91 a0 3e 2b df 32 bf fe fc 06 3f aa 14 8e 3d
       0.31360972 -0.6987178 0.52729785 0.06937535
000310 60 2a b0 3e 1b 35 20 3e 3d e7 63 bf f6 b1 0f 3f
       0.3440733 0.15645258 -0.89024717 0.5613092
000320 e9 8b 5d be b5 4d 48 bf bc b6 02 3f 46 a8 d6 be
       -0.21635403 -0.7824357 0.5106008 -0.41925257
000330 17 7d 40 bd d4 d8 20 bf 8a 5f 72 bf 84 14 b5 3e
       -0.046994295 -0.62830853 -0.9467703 0.35367215
000340 ec 3e 62 bf af 0c bc 3e c8 8f 67 3f e0 fe 2b 3f
       -0.8837726 0.36728427 0.9045377 0.67185783
000350 0e 61 93 3e cb 04 f0 bd 17 80 fe 3e 91 9b c7 3e
       0.28784984 -0.11719664 0.497071 0.38985875
000360 71 d2 83 bf 00 1e 17 3f fe 86 ea be ee a3 03 3f
       -1.0298597 0.5903015 -0.45806116 0.5142201
000370 ef 20 43 3f 14 37 9d be 45 c4 2c 3f ec 86 ab 3e
       0.7622213 -0.30706084 0.67486984 0.33501375
000380 31 5d 96 3e a1 7c 3d bf e0 79 0e 3f bf f8 6b bd
       0.29367974 -0.74018294 0.55654716 -0.05761027
000390 aa 28 cc 3e d8 40 e4 3c 95 0d 29 bf b6 b0 13 3f
       0.39874774 0.027862951 -0.6603635 0.57691514
0003a0 59 d8 a0 be cf b5 39 bf 0e 7d bb 3e df e7 e6 be
       -0.3141506 -0.7254304 0.36618847 -0.4509878
0003b0 4e 9b 9e be c9 20 1f bf 6b 32 42 bf 94 4d a3 3e
       -0.30977863 -0.621594 -0.7585818 0.31895125
0003c0 1d 87 36 bf be 33 d1 3e 75 d3 3a 3f ee 46 14 3f
       -0.71299917 0.4085979 0.7297891 0.5792073
0003d0 cd 67 8f 3e 1d c1 6f bc 09 2f 10 3f 57 2c 07 3f
       0.2800888 -0.014633444 0.5632177 0.5280203
0003e0 4b 96 56 bf 89 bd 0d 3f cb 7f d6 be bd a1 f4 3e
       -0.8382308 0.5536733 -0.41894373 0.47779647
0003f0 68 39 39 3f 58 69 6c be bf 97 12 3f cb c6 fd 3e
       0.7235322 -0.2308706 0.57262796 0.4956573

bias f4 [32]
000000 9f 08 ad bc 58 37 f3 bd 10 19 59 bc 1d 5d 71 bd
       -0.021122275 -0.1187579 -0.013250604 -0.05892669
000010 78 4c cd bd 72 5c 0f 3d 43 18 13 bd fb c0 aa 3d
       -0.10024351 0.035000272 -0.03591181 0.08337589
000020 35 21 1f 3e 97 5f 5b bc 44 f8 a9 bc 1b 13 20 3e
       0.15540011 -0.01338949 -0.020748265 0.15632288
000030 b9 03 69 bd 9f d1 9d bd ae ac 1f 3d e9 1b a5 bd
       -0.056888316 -0.07705998 0.03898304 -0.08061964
000040 2c b9 8a bd 1c 49 b1 bd 62 e7 43 3d a7 10 9a bd
       -0.067736 -0.08656523 0.047828086 -0.075227074
000050 e6 38 4d 3d 7b 51 95 3d 07 fd 3e 3c 1e d2 80 3d
       0.05010309 0.07290932 0.011657006 0.06290077
000060 cf f4 53 bb 22 0f 09 be cd f8 b2 3d 07 b7 3d bd
       -0.0032341962 -0.13384679 0.08738861 -0.046317127
000070 fc ef 12 bd a6 fb fe bc f2 0b f8 bc 4d 95 65 3d
       -0.0358734 -0.031125855 -0.030279133 0.056050587

weight f4 [1, 32]
000000 3e ff 5a bf 40 52 41 bf cb 49 39 3f c9 c8 46 3f
       -0.8554572 -0.7551613 0.72378224 0.77650124
000010 c8 50 57 3f f5 c0 48 bf 7d 43 8f bf 34 1a 55 bf
       0.8410764 -0.7841943 -1.1192471 -0.8324311
000020 0e b5 9d bf a0 44 53 bf 7f b9 5f bf 7d 9f 45 3f
       -1.2320879 -0.8252659 -0.8739242 0.77196485
000030 f1 a3 1e bf d5 9d 65 3f 84 99 47 3f b4 5f 28 3f
       -0.61968905 0.8969396 0.7796862 0.6577103
000040 fb 49 61 bf 4d 06 56 3f 7b 39 65 bf 84 b4 63 3f
       -0.8800351 0.83603364 -0.89540833 0.8894732
000050 f4 0e 30 3f d5 59 60 3f 18 6a 3a bf 79 e9 32 bf
       0.68772817 0.8763707 -0.72818136 -0.698875
000060 2d 7b 45 bf 9b 74 62 bf 7c 68 59 3f 39 7a 47 3f
       -0.77141076 -0.88459176 0.84925056 0.7792087
000070 db 74 5c bf 20 a1 4a 3f c4 92 53 3f 4d 6c 4f 3f
       -0.8611581 0.7915211 0.8264582 0.8102463
