mlcolvar_committor/models/model_4_q.pt (torch, 23687 bytes, 6 tensors)

mass f4 [6]
0	0x41b7eb1c	22.9898
1	0x41b7eb1c	22.9898
2	0x41b7eb1c	22.9898
3	0x47747530	62581.188
4	0x47747530	62581.188
5	0x47747530	62581.188

weight f4 [32, 6]
0	0x3d07bcb7	0.033138957
1	0xbdf76bbb	-0.12081095
2	0x3e5f02f1	0.21778466
3	0xbf9cac17	-1.2240018
4	0xbf13e6a6	-0.57773817
5	0x3e147fa3	0.14501815
6	0x3e6c9f17	0.23107563
7	0xbe636f62	-0.22210458
8	0xbebcc93e	-0.36872286
9	0xbf9f558a	-1.244798
10	0xbe52af05	-0.20574577
11	0x3e483e27	0.19554959
12	0x3c1248ce	0.008928491
13	0xbe1fd966	-0.15610275
14	0xbe8395f2	-0.25700337
15	0x3f96fcca	1.1795895
16	0x3e83efbf	0.2576885
17	0xbd5c26dc	-0.053747997
18	0xbdb94052	-0.09045471
19	0x3e4ffe0e	0.20311758
20	0x3dbf27d2	0.09333767
21	0x3f715763	0.94273967
22	0x3eb4ee9e	0.353383
23	0xbe9694fd	-0.29410544
24	0xbd424323	-0.047427308
25	0xbdbd4d1c	-0.09243223
26	0x3e07f2ee	0.13276264
27	0x3f8ad519	1.0846282
28	0x3f2833a5	0.65703803
29	0xbe382314	-0.17982131
30	0x3eae9708	0.34099603
31	0x3e3aa328	0.18226302
32	0xbe0697ee	-0.13143894
33	0xbf908edc	-1.1293597
34	0xbf32f228	-0.6990075
35	0x3b88a8a0	0.0041704923
36	0x3e4a6324	0.19764382
37	0xbec3d4e5	-0.38248363
38	0xbe9b9907	-0.30390188
39	0x3f905e78	1.127883
40	0x3f0f8291	0.56058604
41	0x3d97238c	0.07379827
42	0x3d2a8b80	0.041636944
43	0x3e979cf9	0.29611948
44	0x3e070e84	0.13189131
45	0x3f37583c	0.7161901
46	0x3f37cddf	0.7179851
47	0xbf111504	-0.5667269
48	0x3dabec91	0.08394731
49	0xbe1b2a18	-0.15152776
50	0xbd23b2e0	-0.03996551
51	0x3faf4c02	1.3695071
52	0x3e606ffa	0.21917716
53	0xbdf1489d	-0.11781428
54	0x3e52f1f4	0.2060011
55	0xbd0bb16f	-0.03410476
56	0xbe8a1c86	-0.26974887
57	0xbf9682cd	-1.1758667
58	0xbf354eea	-0.7082354
59	0x3e8e8825	0.27838245
60	0x3dd852ca	0.10562666
61	0x3e1f1043	0.15533547
62	0x3e23b5ba	0.15987292
63	0xbfad823f	-1.3555373
64	0x3dc80b5d	0.097677924
65	0xbc714e9d	-0.0147282155
66	0xbed232e4	-0.4105445
67	0xbea0131c	-0.3126458
68	0xbdfc90ec	-0.12332329
69	0x3fabb917	1.341586
70	0x3ecb30a5	0.3968555
71	0x3d84698e	0.064654455
72	0xbe6c61cb	-0.2308418
73	0xbef3ccf0	-0.47617292
74	0x3da993ff	0.08280181
75	0xbf8ba97c	-1.0911098
76	0xbe850fe6	-0.25988692
77	0x3f140d50	0.57832813
78	0x3e95db5f	0.2926893
79	0x3d89cf61	0.067290075
80	0xbe2ddfc1	-0.16979887
81	0x3fa5561b	1.2916902
82	0xbc97a64d	-0.018511916
83	0xbd79204e	-0.060821824
84	0xbe5ea987	-0.21744357
85	0xbe362a45	-0.17789562
86	0xbeb8d2a5	-0.3609821
87	0xbf880bc9	-1.0628597
88	0xbebf0f5e	-0.37316412
89	0x3e50905f	0.20367573
90	0xbe02536a	-0.12727132
91	0xbdd61698	-0.10453528
92	0x3e18df1a	0.14928856
93	0x3f994c24	1.1976361
94	0x3e75010b	0.23926179
95	0xbe94d2e2	-0.2906714
96	0x3e3e98d1	0.18612982
97	0x3c06749b	0.008206512
98	0x3e1848fd	0.14871593
99	0x3faf1b48	1.36802
100	0x3d6d4b1e	0.057932965
101	0x3b0778fc	0.0020671478
102	0xbec09d84	-0.37620175
103	0xbe244a7d	-0.1604404
104	0xbd87ec3f	-0.06636857
105	0x3f6bf5da	0.92172015
106	0x3f30bbfc	0.6903684
107	0xbea01c08	-0.31271386
108	0x3daf965a	0.08573599
109	0x3e68b47f	0.22725104
110	0x3d346149	0.04403809
111	0xbf9cd432	-1.2252257
112	0xbf374ef4	-0.7160485
113	0x3eef3b4d	0.4672493
114	0x3e82b9c5	0.25532356
115	0x3e23ebfb	0.16007988
116	0x3baa4138	0.005195763
117	0xbf79ac98	-0.9752898
118	0xbf39d15c	-0.7258508
119	0x3effd3d7	0.49966308
120	0x3e8c9fc3	0.2746564
121	0x3e1d74c7	0.15376578
122	0xbe5650e6	-0.20929298
123	0x3f6860db	0.9077279
124	0x3f1a85bc	0.6036031
125	0x3e058afb	0.13041298
126	0xbdda6550	-0.10663855
127	0xbde16d96	-0.1100723
128	0xbece70bf	-0.40320393
129	0x3f86de29	1.0536548
130	0x3f39edab	0.7262828
131	0xbee94c2a	-0.4556592
132	0x3e36324c	0.17792624
133	0x3efc092a	0.49225742
134	0xbe999122	-0.2999354
135	0x3f875d04	1.0575261
136	0x3ebd12e6	0.3692848
137	0xbec30c15	-0.38095155
138	0xbd5cd8c6	-0.05391767
139	0xbd87d97f	-0.06633281
140	0x3e04e732	0.12978819
141	0xbfb696aa	-1.4264729
142	0xbd89f5be	-0.06736325
143	0xbd01d0ba	-0.031693198
144	0xbdc8439e	-0.09778522
145	0x3e120709	0.14260496
146	0xbe2447c6	-0.16043004
147	0xbfc3fca7	-1.5311478
148	0xbcc8eaa3	-0.024525946
149	0xbda26912	-0.07930197
150	0xbdd64295	-0.10461918
151	0xbd260e86	-0.040541194
152	0x3e563298	0.20917737
153	0xbf9792b7	-1.1841649
154	0xbf03040a	-0.5117804
155	0xbdf1cd9f	-0.11806797
156	0x3eb3dc57	0.35129043
157	0x3d12b481	0.035816673
158	0xbb9b9167	-0.004747558
159	0xbf885d54	-1.0653481
160	0xbeb6e560	-0.35721874
161	0x3efa58ed	0.4889597
162	0xbeba3679	-0.36369684
163	0x3e239f3d	0.15978713
164	0x3e9a767f	0.3016853
165	0xbf9a326b	-1.2046636
166	0xbeb79406	-0.3585512
167	0xbe88e256	-0.2673518
168	0xbe8d23bb	-0.27566323
169	0xbe0feca2	-0.14055112
170	0x3e13b93e	0.14426133
171	0x3f8bcf80	1.0922699
172	0x3ec2deda	0.38060647
173	0x3e10da6e	0.14145824
174	0xbe422eea	-0.18963209
175	0x3e9fd14c	0.31214368
176	0x3e889b7d	0.26681128
177	0xbfa09a19	-1.2547027
178	0xbe926c94	-0.28598464
179	0x3eeaf9b7	0.45893642
180	0xbe99a4a9	-0.30008438
181	0xbdc4e817	-0.0961458
182	0xbec64575	-0.38724867
183	0xbfa3e7f9	-1.2805167
184	0xbe496735	-0.19668277
185	0xbd064884	-0.032784
186	0x3e379a66	0.17929992
187	0xbd21d596	-0.039510332
188	0x3e903bcf	0.2817063
189	0x3f87a564	1.0597348
190	0x3ee4bd2c	0.44675577
191	0xbe9d0371	-0.30666688

bias f4 [32]
0	0x3e8706f8	0.26372504
1	0x3e58fa40	0.21189213
2	0xbb9e42dd	-0.004829748
3	0xbeb01de0	-0.34397793
4	0xbea4fe06	-0.32225055
5	0x3eefc1e3	0.4682761
6	0xbe73522a	-0.23761812
7	0xbe760053	-0.24023561
8	0xbe66e0c5	-0.2254668
9	0x3ec1ff1e	0.3788995
10	0xbd0ed4f9	-0.034871075
11	0xbe64df53	-0.22350816
12	0x3d1508b4	0.036385253
13	0xbdff7411	-0.1247331
14	0x3ea251a4	0.31702912
15	0xbd04dc47	-0.032436635
16	0xbd99b055	-0.07504336
17	0xbe644082	-0.22290233
18	0x3e3ef0d1	0.18646552
19	0x3e3930ac	0.18084973
20	0xbee8c3b8	-0.45461822
21	0xbde7a175	-0.11310092
22	0xbe0670af	-0.13128923
23	0x3db750be	0.08950947
24	0x3e4149b6	0.18875775
25	0x3edb8c27	0.42880365
26	0xbd59291d	-0.053017724
27	0x3ed055e7	0.40690538
28	0xbed0dceb	-0.40793547
29	0xbd85de2a	-0.06536515
30	0x3ed4f38c	0.41592062
31	0xbe2468e4	-0.16055638

weight f4 [32, 32]
0	0xbf0c3da3	-0.5478155
1	0xbf12f4a7	-0.5740456
2	0x3e9fb3b4	0.3119179
3	0x3ed1ea91	0.40999272
4	0x3f002046	0.50049245
5	0xbf1a07b8	-0.6016803
6	0x3f03d175	0.5149148
7	0x3f0ad3d9	0.54229504
8	0x3ec05388	0.3756373
9	0xbf422012	-0.75830185
10	0xbe557454	-0.20845157
11	0x3f219ca5	0.63129646
12	0xbf34f3fd	-0.70684797
13	0x3f402176	0.7505106
14	0xbf3f3608	-0.7469182
15	0x3ec3d86d	0.38251057
16	0x3e23eaf3	0.16007595
17	0x3f07b397	0.5300841
18	0xbf054942	-0.5206491
19	0xbef8b54e	-0.48575824
20	0x3f2597d8	0.6468482
21	0x3eecda5a	0.4626034
22	0x3f46d7b4	0.77672887
23	0xbedf9258	-0.4366634
24	0xbeeeb3a9	-0.46621445
25	0xbebccd6a	-0.36875468
26	0xbf03ca66	-0.5148071
27	0xbeefeba7	-0.46859476
28	0x3f0f7e85	0.5605243
29	0xbeeb04d5	-0.45902124
30	0xbf1fc78a	-0.6241385
31	0x3ed9587f	0.4245033
32	0xbf052da5	-0.52022773
33	0xbf0361d3	-0.5132114
34	0x3e0f1188	0.13971531
35	0x3d9d514f	0.07681524
36	0x3ea47aba	0.32124883
37	0xbef4d2e6	-0.47817153
38	0x3ef1290d	0.47101632
39	0x3ece7e31	0.4033065
40	0x3ecff7f5	0.40618864
41	0xbf09e54e	-0.53865516
42	0xbe153926	-0.14572582
43	0x3ee2ceec	0.44298494
44	0xbf23507b	-0.6379468
45	0x3ecd3848	0.40082002
46	0xbf03b50b	-0.51448125
47	0x3e8ac562	0.27103716
48	0x3ea5ce1a	0.32383806
49	0x3eadb0d9	0.33923987
50	0xbee2131e	-0.4415521
51	0xbe9e4480	-0.30911636
52	0x3ec60544	0.38675892
53	0x3ed0b6cc	0.40764463
54	0x3ef0468e	0.4692883
55	0xbead436d	-0.33840504
56	0xbf0ddaf3	-0.55412215
57	0xbe89de59	-0.2692745
58	0xbe8fffbf	-0.28124806
59	0xbefbfffe	-0.49218744
60	0x3e7b37e2	0.24533036
61	0xbec7661c	-0.3894509
62	0xbe91f632	-0.28508145
63	0x3ed25194	0.41077864
64	0x3f396383	0.7241747
65	0x3f104ced	0.5636738
66	0xbee611d8	-0.4493549
67	0xbe6b5f59	-0.22985591
68	0xbf076c21	-0.52899367
69	0x3f1b0b7d	0.60564405
70	0xbf2698ee	-0.650771
71	0xbefeaca1	-0.4974108
72	0xbf0010e0	-0.5002575
73	0x3f244c4a	0.6417891
74	0x3e14f88e	0.14547941
75	0xbf446c7a	-0.7672802
76	0x3f12db6c	0.5736606
77	0xbf3307e4	-0.69933915
78	0x3f6033c9	0.8757902
79	0xbef7e0ca	-0.48413688
80	0xbef295b0	-0.47379827
81	0xbf283f3c	-0.6572149
82	0x3f19e6c1	0.6011773
83	0x3f27349e	0.6531466
84	0xbf432395	-0.7622617
85	0xbf285d3e	-0.65767276
86	0xbf4c1051	-0.79712397
87	0x3eb3eec9	0.35143116
88	0x3f36f2a4	0.7146399
89	0x3f1749d0	0.59097004
90	0x3f2c4c5b	0.6730401
91	0x3f0d4787	0.5518727
92	0xbf098d3e	-0.53731143
93	0x3f288b41	0.65837485
94	0x3f471406	0.7776493
95	0xbee721f4	-0.45143092
96	0x3e5844ad	0.21119948
97	0x3ecb2e9e	0.39684004
98	0xbe727881	-0.23678781
99	0xbe56cb1a	-0.20975915
100	0xbe9ba0ef	-0.3039622
101	0x3eff3c34	0.4985062
102	0xbec1bacc	-0.37837827
103	0xbf0029d2	-0.5006381
104	0xbee0a8bb	-0.4387873
105	0x3f099ea7	0.5375771
106	0x3e1bab5a	0.15202084
107	0xbf0b304a	-0.5437056
108	0x3f247578	0.64241743
109	0xbf1ffa55	-0.6249135
110	0x3ecff6e0	0.40618038
111	0xbedba616	-0.4290015
112	0xbec683f7	-0.38772556
113	0xbed1eca2	-0.4100085
114	0x3f00a476	0.5025095
115	0x3f076581	0.5288926
116	0xbef771a7	-0.48328897
117	0xbeb844b1	-0.35989907
118	0xbed7809c	-0.4209031
119	0x3e88f9da	0.26753122
120	0x3eb09430	0.34488058
121	0x3edd87d7	0.432677
122	0x3ea399f7	0.31953403
123	0x3ef3d864	0.4762603
124	0xbe333643	-0.17501168
125	0x3e9f7573	0.31144294
126	0x3ec0a9f2	0.37629658
127	0xbe9a9d84	-0.301983
128	0xbeef8ff1	-0.46789506
129	0xbeb1272a	-0.34600192
130	0x3da9550c	0.082681745
131	0x3e95933f	0.29213902
132	0x3f095a01	0.5365296
133	0xbf03402c	-0.51269794
134	0x3ec8d388	0.39223886
135	0x3f19d0b4	0.6008408
136	0x3e5e880b	0.21731584
137	0xbf17a68b	-0.592385
138	0xbe754681	-0.23952676
139	0x3e9c68a9	0.305486
140	0xbebbb672	-0.36662632
141	0x3ee7f476	0.45303696
142	0xbed5f098	-0.4178512
143	0x3ed026ff	0.40654752
144	0x3eab933e	0.33510774
145	0x3e871c9a	0.2638901
146	0xbed744f5	-0.42044798
147	0xbe8a92ba	-0.27065068
148	0x3ede1087	0.43371984
149	0x3ea7199c	0.32636726
150	0x3ec29b65	0.38009182
151	0xbea67b9c	-0.3251618
152	0xbe8353ed	-0.25649968
153	0xbea26e10	-0.31724596
154	0xbe892a77	-0.2679021
155	0xbe6f6c3e	-0.23381135
156	0x3eaf6fda	0.34265023
157	0xbeb0a67a	-0.34502012
158	0xbe95643b	-0.29178032
159	0x3e47a4f8	0.19496524
160	0xbe801c46	-0.2502157
161	0xbeaf5f65	-0.34252468
162	0x3eb44657	0.35209915
163	0x3e11b672	0.14229754
164	0x3f15c344	0.58501077
165	0xbede17ef	-0.43377635
166	0x3e3c6b5c	0.1840033
167	0x3f084f72	0.53246224
168	0x3ecf78eb	0.4052194
169	0xbec7d0b1	-0.39026406
170	0xbe990916	-0.29889745
171	0x3ea4d94a	0.32197028
172	0xbf28ec43	-0.65985507
173	0x3ec120dc	0.37720382
174	0xbef179ae	-0.47163147
175	0x3e8f8c9d	0.28036967
176	0x3e035f81	0.128294
177	0x3ebce241	0.36891368
178	0xbec92d66	-0.3929245
179	0xbe84055b	-0.25785336
180	0x3e9e9a80	0.3097725
181	0x3e91aa6e	0.2845034
182	0x3f021ae2	0.5082227
183	0xbedf4b1b	-0.43611988
184	0xbea4461a	-0.32084733
185	0xbead959e	-0.3390321
186	0xbe9813e1	-0.29702666
187	0xbe3b6bc0	-0.18302822
188	0x3ec8b209	0.3919833
189	0xbe236d36	-0.1595963
190	0xbf123adc	-0.5712106
191	0x3de862e0	0.11346984
192	0x3f35b80c	0.7098396
193	0x3eeeae70	0.4661746
194	0xbef14f99	-0.4713104
195	0xbe8bdb0b	-0.27315554
196	0xbf417837	-0.7557406
197	0x3f42f5e3	0.76156443
198	0xbebc6447	-0.36795256
199	0xbf38ecb7	-0.722362
200	0xbf32e520	-0.69880867
201	0x3ef09366	0.46987456
202	0x3e44134f	0.1914799
203	0xbf24c634	-0.64364934
204	0x3f4292fe	0.7600554
205	0xbf1b4de9	-0.60665756
206	0x3f5d85e2	0.86532414
207	0xbeeafc66	-0.4589569
208	0xbed4459a	-0.41459352
209	0xbf209889	-0.6273275
210	0x3ef8b4ec	0.48575532
211	0x3f073cf3	0.52827376
212	0xbf0f9f48	-0.5610242
213	0xbf1485a4	-0.5801642
214	0xbf20882d	-0.6270779
215	0x3eacee98	0.33775783
216	0x3f0ff4e1	0.5623303
217	0x3f0fde6b	0.5619876
218	0x3f297221	0.6618977
219	0x3f2dd2b1	0.67899615
220	0xbf04ad2f	-0.5182676
221	0x3f12ec22	0.5739156
222	0x3f3c8d9e	0.7365359
223	0xbeb4830a	-0.35256225
224	0x3ed2f9f3	0.4120632
225	0x3eabb722	0.33538157
226	0xbd85b87d	-0.06529329
227	0xbeae9036	-0.340944
228	0xbeda9cfb	-0.42697892
229	0x3ea2dbc0	0.3180828
230	0xbea61518	-0.32437968
231	0xbed2065b	-0.41020474
232	0xbe7b669b	-0.2455086
233	0x3f0612c7	0.523724
234	0x3d042282	0.03225947
235	0xbea549d7	-0.32282898
236	0x3f34c0da	0.7060677
237	0xbf0378dd	-0.513563
238	0x3f166ab0	0.5875654
239	0xbeac1d8e	-0.33616298
240	0xbe0e7d61	-0.13915016
241	0xbf1a151f	-0.6018848
242	0x3e9d197a	0.306835
243	0x3f0c5906	0.5482334
244	0xbeb7e568	-0.3591721
245	0xbf0c7c13	-0.5487682
246	0xbf1a174e	-0.6019181
247	0x3eaff2a8	0.3436482
248	0x3e9ef213	0.31044063
249	0x3edeb0d1	0.43494275
250	0x3eea7bf0	0.45797682
251	0x3e97697f	0.29572675
252	0xbeb46344	-0.35231984
253	0x3ea02272	0.3127628
254	0x3ec43976	0.3832509
255	0xbe8e7be2	-0.2782889

bias f4 [32]
0	0xbb3059e7	-0.0026909055
1	0xbe01ec79	-0.12687863
2	0x3dfd1df3	0.12359228
3	0x3d52f96d	0.051507402
4	0xbd4cd04f	-0.050003346
5	0xbd2dfd02	-0.042477615
6	0x3d34cfb3	0.04414339
7	0xbd883053	-0.06649842
8	0x3ddd6152	0.10809578
9	0xbe1523d8	-0.14564455
10	0xbe131427	-0.14363156
11	0xbe185a82	-0.14878276
12	0x3be6bf50	0.007041849
13	0x3dd0647c	0.10175416
14	0x3e020ad7	0.12699448
15	0x3d5e8297	0.05432376
16	0xbd3143f0	-0.04327768
17	0xbd6ff490	-0.058582842
18	0xbdbe38d2	-0.09288181
19	0xbde00685	-0.109387435
20	0xbd078054	-0.033081368
21	0x3d698791	0.05701405
22	0xbdc7312b	-0.09726175
23	0x3db00fc9	0.08596761
24	0xbe151752	-0.14559677
25	0x3de5db7d	0.11223505
26	0x3ddf6a22	0.10908915
27	0x3ce2c547	0.02768196
28	0x3d045d3d	0.03231548
29	0xbdc174fb	-0.094461404
30	0xbdd22bd8	-0.10262269
31	0x3d7c807d	0.061645973

weight f4 [1, 32]
0	0xbf6bfe96	-0.9218534
1	0xbf3a76af	-0.72837347
2	0x3f33f510	0.7029581
3	0x3f44cfb3	0.76879424
4	0xbf4e7342	-0.8064462
5	0xbf5d5bc4	-0.8646815
6	0x3f532e56	0.8249258
7	0x3f6e7920	0.9315357
8	0x3f5c2578	0.8599467
9	0xbf4897d8	-0.78356695
10	0xbf2bd910	-0.67128086
11	0xbf42fcde	-0.76167095
12	0x3f5ef4eb	0.87092465
13	0x3f0683ab	0.5254466
14	0x3f4ea10a	0.80714476
15	0x3f360165	0.7109588
16	0xbf5affce	-0.85546577
17	0xbf3c6414	-0.7359021
18	0xbf619a77	-0.8812632
19	0xbf73125e	-0.949499
20	0xbf41c714	-0.75694394
21	0x3f4c5487	0.7981648
22	0xbf6ec28c	-0.93265605
23	0x3f63a041	0.88916403
24	0xbf5050c1	-0.8137322
25	0x3f589425	0.8460105
26	0x3f5d138b	0.86357945
27	0xbf6668d0	-0.9000368
28	0x3f508eaa	0.8146769
29	0xbf5d190c	-0.86366343
30	0xbf461380	-0.77373505
31	0x3f77b87c	0.96765876
