mlcolvar_committor/models/model_6_z.pt (torch, 21751 bytes, 6 tensors)

mass f4 [6]
00000000: 1ceb b741 1ceb b741 1ceb b741 3075 7447
00000010: 3075 7447 3075 7447
22.9898 22.9898 22.9898 62581.188 62581.188 62581.188

weight f4 [32, 6]
00000000: cd81 993e 11e2 ba3e 7dd2 efbe cc58 383f
00000010: 083e da3e 47be 86be 9dbb 87bd 0004 83bd
00000020: 3cad 3cbd 5f3d 7d3f 16e2 183f 4189 d9be
00000030: eb0b 9fbd c09c c4bd 6808 0ebf 6076 993f
00000040: bbd2 ce3e 8f5c cfbd 7bf5 52be ecc4 c33e
00000050: 12ce b2be fe4a 043f 61c6 463f d398 7fbe
00000060: 1e43 863c e752 9c3e 7e74 8d3e b99d 8ebf
00000070: d305 1bbf 5ea6 d43e bfb0 d6bd d363 16be
00000080: 8e0c bebe 3ac7 5f3f 2945 283f 2532 4abe
00000090: fc38 82be 134c e7bc c965 43be e29e 903f
000000a0: 6dcc 033f 0358 6a3e 59d0 3e3e 8b26 70bd
000000b0: 2d46 b63d f377 8fbf 35d1 92bd 5f7c 05bc
000000c0: 62a4 71be 638c 2f3e 505e 1b3f f834 96bf
000000d0: 8000 09bf 92c3 b5bd 1d0f 043e 1d06 f8bd
000000e0: 51d0 403e f19c 853f 1daf 313f c13a 053e
000000f0: 8d79 c43e b7f4 593e e199 603e f895 79bf
00000100: 815b f1be 93fe 17be 5f9c 84be 75fe c4bc
00000110: 821f 263f 996c 62bf b241 28bf d9ed 193f
00000120: 43a7 71bd e1d9 f53d 3231 553d a971 7bbf
00000130: ca3d e9be 1d5e a0bd d255 e43e 8d9f da3e
00000140: d141 aabe f55c 873f bd03 403e bfd0 3fbe
00000150: 5a87 a8be 37f8 683e 1184 e03e 46ae 67bf
00000160: be94 3ebf 0afe 9bbd 7aff 87be 6b32 2a3d
00000170: 65f7 8abe 01e8 9d3f d302 3a3e baa5 0bbe
00000180: 5c49 a0bc 69a9 58be 1c5c 1dbe fb0d 8c3f
00000190: 9279 6e3e 6e2a a3be d9e6 54bb 6160 303b
000001a0: 1ad0 d13d c0c2 8cbf 4d35 e1be 00c2 d2bd
000001b0: d861 ddbc b4ff a53e b33a 59be 06e1 803f
000001c0: 9558 bd3d 8359 a7be 9f52 c5bd 3976 b73e
000001d0: 0ca6 66bf b318 f93e 6924 ff3e 08d8 4f3c
000001e0: 9692 6b3e c34c dabe 73fc a93e dc60 6cbf
000001f0: e890 51bf 7409 073f 4bc5 bfbe 7c80 dabe
00000200: 8eb3 1c3f a786 15bf 6ccd 65bf e9f1 e93e
00000210: 7674 383e d259 f53d 82e2 5c3e 46d4 0abe
00000220: 68ef 9bbe a1d3 9abd 0861 8ebe 268e 02be
00000230: 0e89 42be 3c4b 543f 2ba0 de3e 114d e53d
00000240: 6e46 c13d 880e 8a3e 9471 5e3b 76d4 80bf
00000250: 93ca b2be 6b63 623e 953b dcbc 5568 2fbe
00000260: 94ed 983e d8c0 54bf 4284 783e f808 653d
00000270: b408 c43c 53ff 3ebd 786e fe3d d429 79bf
00000280: 8007 37bf 3916 033f 5318 9dbe 4f70 00be
00000290: 4040 c7be d08e 7c3f e03c 163f cf4d 40be
000002a0: 3601 05be 4138 333e a44c 06be 58d2 873f
000002b0: 7224 2a3f d876 8cbe edfc 973e e976 873e
000002c0: 63ae 1cbd 4b82 84bf 1c21 5abe 53ef 8a3e
000002d0: 07ce d13d 3465 af3d 7a03 1fbf 8717 913f
000002e0: 5bea 3f3f a0ca 90be 74ea d6bd ef6a 903e
000002f0: b8ba c53d 03eb 7cbf 4911 0dbf 7d90 86be
0.29981843 0.365006 -0.46840277 0.72010493 0.4262545 -0.26317045 -0.06627581 -0.06397247
-0.046063647 0.9892177 0.5971998 -0.4248753 -0.07765945 -0.0960021 -0.55481577 1.198925
0.4039515 -0.10125076 -0.20601456 0.38236177 -0.34922844 0.5167693 0.7764645 -0.24960642
0.016389426 0.30532 0.2762794 -1.1141883 -0.6055576 0.41533178 -0.104829304 -0.14686517
-0.37118953 0.8741337 0.6573053 -0.19745691 -0.254341 -0.028234517 -0.19081797 1.1298487
0.51483804 0.22885136 0.18634166 -0.058630507 0.08900104 -1.1208481 -0.07168809 -0.008147328
-0.23597863 0.17143397 0.60690784 -1.1734915 -0.5351639 -0.08875193 0.1289639 -0.12110541
0.18829466 1.043852 0.69407827 0.13010694 0.38373986 0.21284758 0.219337 -0.9749446
-0.47140124 -0.14843206 -0.25900552 -0.024047116 0.6489183 -0.88446957 -0.65725243 0.6012855
-0.058997404 0.12004448 0.05204887 -0.98220307 -0.45554954 -0.07830451 0.44596726 0.42699853
-0.3325334 1.0575243 0.18751426 -0.18731974 -0.32915765 0.22750936 0.4385076 -0.90500295
-0.7444571 -0.076168135 -0.265621 0.04155199 -0.27141872 1.2336427 0.1816514 -0.13637438
-0.01956623 -0.21158375 -0.15367168 1.0941767 0.23288563 -0.3186831 -0.0032486229 0.0026912915
0.1024477 -1.0996933 -0.43985978 -0.10290909 -0.027024195 0.32421649 -0.21213798 1.0068672
0.09245411 -0.3268548 -0.09634899 0.35832384 -0.9009712 0.48651657 0.49832466 0.012685783
0.23005137 -0.4263669 0.33200416 -0.92335296 -0.81861734 0.527488 -0.3745521 -0.4267615
0.6121148 -0.5840859 -0.89766574 0.45692375 0.18013176 0.119800225 0.21570781 -0.13557538
-0.3045609 -0.07559896 -0.27808404 -0.12749538 -0.18997595 0.829273 0.43481573 0.1119634
0.094372615 0.2696421 0.003394221 -1.0064838 -0.34920177 0.22108237 -0.02688388 -0.17129643
0.29868758 -0.83106756 0.24269202 0.055916756 0.023929931 -0.046630215 0.12423414 -0.9732945
-0.7149582 0.51205784 -0.3068262 -0.12542842 -0.38916206 0.98655415 0.5868664 -0.18779682
-0.12988743 0.17501928 -0.13115174 1.0611067 0.6646186 -0.2743442 0.29685155 0.2645791
-0.038252246 -1.0352262 -0.21301693 0.27135715 0.10244375 0.08564225 -0.6211468 1.1335305
0.74966973 -0.2827959 -0.10493937 0.28206584 0.096547544 -0.987961 -0.551045 -0.2628211

bias f4 [32]
00000000: 8c4c 60be f04b 0bbe 4c1a 43be 6db7 bfbe
00000010: 5379 3d3d efb5 93be 122c cebe bc1b 5fbd
00000020: 5d3f 353e 1ea9 0bbf b2fb af3e 3d92 97bd
00000030: 1ed9 833d 4566 80be 70ba ac3e d365 19bd
00000040: 4e40 d23d eb3c 383e 55ac 813c 9ecd d0bd
00000050: b6b1 383e 74c4 3b3e 1e0d 81be 3023 713d
00000060: 6a6c b9bd 2ef0 ae3d 6e6d 0c3e 1bbd babd
00000070: 892b 42be cbfd 403d ed1c fdbd ec30 c53e
-0.219042 -0.13603187 -0.19053 -0.3744463 0.046258282 -0.28849742 -0.40267998 -0.05446981
0.17699952 -0.5455493 0.34371716 -0.074009396 0.06437896 -0.25078025 0.3373599 -0.037450623
0.102661714 0.17991988 0.015829245 -0.10195468 0.18036541 0.1833666 -0.2520532 0.058871448
-0.090538815 0.085419044 0.13713619 -0.091181 -0.1896192 0.047117036 -0.12359033 0.38513887

weight f4 [32, 32]
00000000: 15e3 5c3e cf01 ab3e 5142 933e 8a11 923e
00000010: 8a78 16bf e495 7e3e facb c23e 56f5 00be
00000020: c0cb 6fbe 16ce f33e 7714 bbbe 34b8 f0be
00000030: 6847 6fbe 9740 9a3e a8e1 abbe f021 bd3e
00000040: 8013 ec3e b509 5dbe 8910 6c3e 91ae a03e
00000050: 2874 e1be a09b 23bf 896f 04bd 9c5f 4a3e
00000060: f29e 1bbe 6391 c33c cd1a 24bf 3dca 033f
00000070: c052 813e a068 f0be f28c 0a3f 3c43 c1be
00000080: ee8d 8ebe 9a60 01bf e3d9 97be ddbf 91be
00000090: a15a e03e 63a2 babe 2d18 dcbe 869b e53d
000000a0: df74 083f def7 20bf 5056 d63e fcbb 233f
000000b0: 4120 9c3d daae 22be be4c 233f e51b 08bf
000000c0: 1246 94be 31fc fb3d e162 f4bd 0645 93be
000000d0: 424a 1a3f 8cf9 ff3e 4408 893d 0dbd cbbd
000000e0: a380 863e e0db bb3d dd98 183f 02f0 0dbf
000000f0: 6c38 b8be f96e b03e 6c75 22bf 0948 a03e
00000100: f1c9 263d 2141 d2be ca95 91be 2fed 8bbd
00000110: 379a c83e 81e9 99be bfdc debe 02d1 853e
00000120: 0f63 c13e d0b6 f3be 49c2 b73e fcb5 053f
00000130: a1be 383e 1ea5 a3be b8c7 1c3f 4188 f5be
00000140: ca09 3dbe 25d4 933d 4754 88be eebc 5dbe
00000150: 351c b03e 386a 1d3f a629 c7bd d364 72be
00000160: c617 5b3e a456 5c3d 728a ca3e 2c07 b4be
00000170: aa4a 7fbe 0c6d c13e 27a5 10bf d15b 423e
00000180: 623d ae3e 8a24 213f 978f 0d3f 4a29 d63e
00000190: a508 08bf 1fca fe3e fc93 553f c2c3 dbbe
000001a0: d6a4 29bf 1905 453f 83b0 43bf ad78 35bf
000001b0: d08a d6be 44d9 173f 46b8 2bbf c49a 203f
000001c0: cb70 163f bbe3 8ebe 37ca f83e f65e be3e
000001d0: 40ea 48bf 7a49 59bf 8cd0 2bbd 0ec4 883d
000001e0: d339 acbe 11f7 b1be f642 22bf 2d86 5b3f
000001f0: c5d0 063f 3ac4 46bf 28a4 2a3f c1f6 40bf
00000200: cc85 913c da59 ba3e 4d80 9a3d 7fe6 7e3e
00000210: e3e5 0abf 9e85 b33d 3afd f93e 95b8 bdbd
00000220: c2aa c2be 7cae 013f e517 6ebe c07f a7be
00000230: 3189 62be d1ac 3b3e 34b5 17bf f833 f73e
00000240: 875f be3e 0834 edbd 81e2 213d c529 a13e
00000250: 9345 10bf 4155 2dbf de54 a6bb 2347 e03d
00000260: 6ac6 8cbe 19ce 0cbd 6513 e8be 3cb6 023f
00000270: 5853 bf3e ceeb e7be 8c11 093f 263d 3bbe
00000280: 9ee1 f2bd c19b adbe 10ad 7dbe c74d 81be
00000290: 969e e53e 0a11 9bbe bfa2 98be ba70 683e
000002a0: a15a 523e fe15 e3be e05c 453e 6d63 0e3f
000002b0: 4faa 3d3e 6d71 7dbe 9b7a 113f 6542 16bf
000002c0: 359f cebe 8976 a13e 3f99 82be 9613 36be
000002d0: 8244 cc3e 293c 243f 0c11 f4bc 3cd6 b53c
000002e0: dced da3d 6742 0d3d 01ac c03e c31a 03bf
000002f0: b317 ebbe ba0e b33e 0523 d6be c21c 3d3e
00000300: 0c67 ae3e d9e7 183f 393a 993e 457b 183e
00000310: 14f0 04bf 2755 d43e 9584 f43e e55f a2be
00000320: ef9b f8be ba7a e43e f864 03bf 2c0f 21bf
00000330: 7d12 f2bc 6c06 103e d84e 2abf d8be 0d3f
00000340: ceb4 a43e e952 a6be a677 9b3e f30b a43e
00000350: 7766 d7be be06 debe bbcb b8bc 713a 843e
00000360: 9a9c b8be b694 f93c 9fb5 fdbe f225 b23e
00000370: b62a ba3e 8ee1 1abf f596 093f 0de5 98be
00000380: 1ae9 8d3d dcc8 8d3e fb63 743e a066 1c3e
00000390: df29 1ebf 53d9 8e3e fd68 c43e 5b5c 77bd
000003a0: 00d3 d0be 6b05 e23e 9917 92be 16c3 16bf
000003b0: e2ae 84bd 9292 f33d 1be7 02bf a4a0 033f
000003c0: fcdf 393e 8a2f 0ebe 8a28 ec3d ffa8 b73e
000003d0: 0a1c e2be 56e9 3abf fc79 723c ac47 c33d
000003e0: ecf8 69be 8390 82be 46b0 d7be 2f39 e43e
000003f0: 5cc1 dd3e 48fc e2be 636b f23e 880b 88be
0.21571 0.33399817 0.28761533 0.28529006 -0.5877768 0.24861866 0.38046247 -0.12593588
-0.23417568 0.4761817 -0.3653905 -0.47015536 -0.23367083 0.30127403 -0.335706 0.36939955
0.46108627 -0.21585734 0.23053183 0.31383184 -0.44033933 -0.6390934 -0.03233293 0.19763035
-0.15197352 0.023873037 -0.64103395 0.51480466 0.25258446 -0.46954823 0.54121315 -0.37746608
-0.2784266 -0.5053803 -0.29658422 -0.28466693 0.43819144 -0.36452016 -0.42987195 0.11211304
0.5330333 -0.62878215 0.41862726 0.63958716 0.076233394 -0.15887013 0.63788974 -0.53167564
-0.2895971 0.12303961 -0.11932922 -0.28763598 0.6026956 0.49995077 0.0669103 -0.09948168
0.26270017 0.09172797 0.5960825 -0.5544435 -0.35980546 0.34459665 -0.6346042 0.31304958
0.04071993 -0.41065314 -0.28434592 -0.068323486 0.39180157 -0.30060962 -0.4352779 0.26136023
0.37770888 -0.47600412 0.35890415 0.5223081 0.18041469 -0.31961912 0.61242247 -0.47955516
-0.18460765 0.07218198 -0.266268 -0.21654102 0.3439652 0.614902 -0.09724741 -0.23671274
0.21395788 0.053793564 0.3955875 -0.35161722 -0.24930826 0.3777851 -0.56502 0.18980338
0.34031206 0.6294638 0.55297226 0.41828376 -0.5313819 0.4976358 0.8342893 -0.4292279
-0.66267145 0.76960903 -0.7644121 -0.7088726 -0.4190278 0.59315896 -0.67078054 0.62736154
0.5876586 -0.2790812 0.48591778 0.37181824 -0.7848244 -0.8487774 -0.041946933 0.066780195
-0.33637866 -0.3475881 -0.63383424 0.8575161 0.5266231 -0.7764317 0.6665673 -0.75376517
0.017763995 0.36396676 0.07544003 0.24892615 -0.5425703 0.0876572 0.4882601 -0.09263722
-0.38020903 0.5065687 -0.23251303 -0.32714653 -0.22122647 0.18327643 -0.5926087 0.48281837
0.37182257 -0.1158219 0.03952265 0.3147718 -0.5635616 -0.6770821 -0.005076035 0.10951068
-0.27495128 -0.034376238 -0.45327297 0.5105932 0.37368274 -0.45297092 0.535424 -0.18285045
-0.11859439 -0.33907893 -0.2477305 -0.25254652 0.44847554 -0.30286437 -0.29811665 0.22699252
0.20542385 -0.44352716 0.1927371 0.5562046 0.18521999 -0.247503 0.56827706 -0.5869506
-0.4035584 0.31535748 -0.25507542 -0.17780909 0.39896017 0.641543 -0.029793285 0.022196881
0.10689899 0.034487154 0.3763123 -0.5121271 -0.4591652 0.34972173 -0.41823593 0.18468001
0.34062994 0.5972877 0.29927233 0.14890774 -0.5192883 0.41471216 0.47757402 -0.31713787
-0.48556468 0.44624883 -0.5132594 -0.62913775 -0.029549832 0.1406495 -0.66526556 0.5536933
0.32169193 -0.3248513 0.30364722 0.32040367 -0.42070362 -0.4336452 -0.022558084 0.25825837
-0.36056978 0.030466419 -0.49552628 0.34794575 0.3636071 -0.6050042 0.5374597 -0.29862252
0.06929226 0.27692306 0.23866265 0.15273523 -0.6178264 0.2790018 0.3836135 -0.06039081
-0.4078598 0.4414476 -0.2853363 -0.5889143 -0.06478669 0.118931904 -0.5113389 0.51416993
0.1815185 -0.13885322 0.1153117 0.3587112 -0.44162017 -0.7301229 0.014799591 0.09535155
-0.22848862 -0.2550088 -0.42126673 0.44574878 0.43311584 -0.443331 0.47347555 -0.26571298

bias f4 [32]
00000000: a56d dabd 35f8 af3c 58c2 d03d bb9d 49bd
00000010: c1b9 37be 1d3e 493d 393b 3bbe 192e c33b
00000020: 49e8 31be 4e75 dfbd daac 2ebd 0f14 eabd
00000030: 5610 fabc f4c6 e33d bf43 c73d c531 2bbc
00000040: 8a5b d73c 488c 153e 43f4 30bd 4644 2abc
00000050: 9137 aabd aaea 023e 8f58 743d 578f 61bd
00000060: a403 f13c 8d7b eb3d c3a6 e8bd b545 243d
00000070: c652 10bd 99e1 463d d1fb 2cbe b97a 433e
-0.10665444 0.021480659 0.10193318 -0.04922269 -0.17941953 0.0491315 -0.1828431 0.005956423
-0.17373766 -0.10911046 -0.042645313 -0.11429607 -0.030525368 0.11121932 0.097297184 -0.010448878
0.026288766 0.14604294 -0.043201696 -0.010392254 -0.0831138 0.1278483 0.05965477 -0.05506834
0.029420681 0.11498175 -0.11359932 0.04010554 -0.03523519 0.04855499 -0.16892935 0.19089784

weight f4 [1, 32]
00000000: 9f3d 13bf 1690 1c3f 272c 3a3f c972 3abf
00000010: e73b 4abf 565d 163f 2eac 4bbf 7d1e 56bf
00000020: 5c21 4cbf 5d7f e8be 70b6 2bbf 4281 37bf
00000030: 50bf 603f e55f 113f 4e62 ed3e 08f5 003f
00000040: f0da 233f 6f55 333f 93fb 19bf 20f5 5e3f
00000050: 54e2 39bf 9210 3f3f fb37 203f c0f3 4b3f
00000060: ade5 29bf a506 243f f2d8 3dbf 7dd8 4e3f
00000070: 287e 4cbf 0822 d03e 0008 2bbf 5bdc 323f
-0.575159 0.6115736 0.7272362 -0.728314 -0.78997654 0.5873617 -0.795596 -0.8364027
-0.797384 -0.4540967 -0.6707525 -0.71681607 0.8779192 0.5678695 0.46364063 0.5037389
0.6400595 0.70052236 -0.60149497 0.8709278 -0.72610974 0.7463466 0.6258542 0.7966881
-0.6636608 0.6407264 -0.7415916 0.80799085 -0.7988 0.40650964 -0.6680908 0.69867486
