mlcolvar_committor/models/model_2_q.pt (torch, 23623 bytes, 6 tensors)

mass f4 [6]
22.9898 22.9898 22.9898 62581.188 62581.188 62581.188
00000000: 1ceb b741 1ceb b741 1ceb b741 3075 7447
00000010: 3075 7447 3075 7447

weight f4 [32, 6]
-0.31108266 -0.13877508 -0.29052535 1.0766113 0.754341 -0.24517041 0.2703509 0.42210034
0.28066942 -0.9521451 -0.5334022 -0.074624844 -0.17616856 -0.0004364425 0.11290712 -0.7948607
-0.9707705 0.21755087 -0.06988773 -0.21637848 0.24337077 -0.39838293 -0.3550395 -0.08644391
0.5352609 0.37298054 -0.1021351 -1.0244071 -0.5031365 0.4580386 -0.06909797 -0.07192994
0.15332344 -0.8111354 -0.80494136 -0.08374534 -0.26166278 0.38165367 -0.16206497 -0.64691824
-0.16475144 0.16540158 0.38528883 -0.0031433823 -0.20650886 0.83123314 0.98447853 0.009127333
-0.2986823 0.12338932 -0.098856956 -0.847046 -0.39511937 0.41989312 0.13561268 0.2481525
0.35189092 -1.0846132 -0.85854965 0.40918532 0.11936191 0.38116565 0.13186216 1.1084129
0.28872353 -0.44997504 0.14801677 0.11554733 -0.15097128 -0.77827865 -0.75357366 0.3873776
-0.31432799 -0.15770154 0.12136445 1.2101719 0.6948552 -0.68779814 0.26929227 -0.26631057
-0.14451993 0.9054573 0.693839 -0.36420417 0.13375632 0.16893843 -0.21678638 1.1081392
0.76179177 0.14090815 -0.17308237 -0.07215283 -0.09588671 -1.0337965 -0.6159805 -0.032674696
-0.4205276 -0.22394527 -0.27101824 1.1664668 0.48799044 -0.1867027 0.28108326 -0.2118062
0.35586876 -1.00297 -0.6890889 0.5703012 0.20283647 0.11338365 -0.39428246 -0.9462229
-0.6594402 0.30034608 -0.32450566 0.345283 -0.14915726 1.0609125 0.6654364 -0.3923647
-0.32987657 0.40351698 0.21141516 -0.7226999 -0.90831953 0.0013033985 -0.20134091 -0.16876438
-0.06531357 -0.9212291 -0.8033873 0.22908281 0.2450734 -0.32058936 -0.021067597 -0.7574197
-0.11308836 -0.1545122 0.06305291 0.29234907 0.4736993 0.73590463 0.99937665 -0.20166296
0.17867006 -0.17321381 -0.39178893 -1.1978651 -0.53912455 -0.02905618 -0.2779502 0.19524004
-0.28008142 1.0937021 0.6428511 -0.40897223 -0.13100338 -0.38664654 -0.01227947 -1.1186411
-0.792352 0.33318996 0.45336986 -0.3555373 0.3526465 -0.9002884 -0.21864472 0.4252519
0.54406244 -0.36472386 -0.06807041 1.1834867 0.64768183 0.16422103 -0.090489656 -0.36679587
0.28459662 0.70405495 0.082253024 -0.14205799 0.26316547 0.4511282 -0.19941793 -1.1944736
-0.46033114 -0.03946287 0.39773086 -0.17510559 -0.07563993 -1.0187012 -0.86245 0.17279509
00000000: 3a46 9fbe 0e1b 0ebe bdbf 94be 66ce 893f
00000010: 7e1c 413f f40d 7bbe 6f6b 8a3e 891d d83e
00000020: e7b3 8f3e c8bf 73bf 0c8d 08bf e9d4 98bd
00000030: 8865 34be 52d2 e4b9 d93b e73d fe7b 4bbf
00000040: 6a84 78bf a8c5 5e3e 4c21 8fbd 5292 5dbe
00000050: 3036 793e d9f8 cbbe bdc7 b5be 8109 b1bd
00000060: dc06 093f 4ef7 be3e 352c d1bd c61f 83bf
00000070: 8ecd 00bf 0984 ea3e 3d83 8dbd 0150 93bd
00000080: d200 1d3e 92a6 4fbf a310 4ebf ad82 abbd
00000090: aaf8 85be 1c68 c33e 5cf4 25be 6f9c 25bf
000000a0: 9ab4 28be 085f 293e 9444 c53e 3401 4ebb
000000b0: 0f77 53be b2cb 543f c906 7c3f cf8a 153c
000000c0: e3ec 98be 8ab3 fc3d 8475 cabd 02d8 58bf
000000d0: 164d cabe 3bfc d63e 0dde 0a3e b01b 7e3e
000000e0: 0c2b b43e 9bd4 8abf e9c9 5bbf bd80 d13e
000000f0: 0474 f43d 2528 c33e e006 073e 79e0 8d3f
00000100: 92d3 933e 2163 e6be b591 173e 14a4 ec3d
00000110: 3798 1abe 453d 47bf 34ea 40bf 5b56 c63e
00000120: 99ef a0be 837c 21be ed8d f83d eae6 9a3f
00000130: 08e2 313f 8a13 30bf ade0 893e dc59 88be
00000140: 08fd 13be 0dcc 673f 6f9f 313f f878 babe
00000150: 6bf7 083e 32fe 2c3e 40fd 5dbe 81d7 8d3f
00000160: c904 433f 3a4a 103e 813c 31be ddc4 93bd
00000170: 4060 c4bd 7253 84bf e6b0 1dbf e7d5 05bd
00000180: 654f d7be e951 65be e7c2 8abe c94e 953f
00000190: e2d9 f93e fe2e 3fbe 25ea 8f3e b9e3 58be
000001a0: 6e34 b63e 5261 80bf 2168 30bf 42ff 113f
000001b0: 5db4 4f3e b035 e83d 64df c9be aa3b 72bf
000001c0: 13d1 28bf f6c6 993e 9b25 a6be efc8 b03e
000001d0: aebc 18be fbcb 873f 0a5a 2a3f 07e4 c8be
000001e0: 95e5 a8be c799 ce3e 377d 583e dc02 39bf
000001f0: a187 68bf ccd6 aa3a 502c 4ebe 92d0 2cbe
00000200: 1fc3 85bd acd5 6bbf caaa 4dbf af94 6a3e
00000210: 85f4 7a3e 4a24 a4be f495 acbc 42e6 41bf
00000220: df9a e7bd 7238 1ebe e221 813d c7ae 953e
00000230: b788 f23e 3f64 3c3f 26d7 7f3f bc80 4ebe
00000240: 49f5 363e f65e 31be 8f98 c8be a553 99bf
00000250: 1104 0abf 3a07 eebc 7d4f 8ebe 01ed 473e
00000260: d566 8fbe 6efe 8b3f e491 243f cf64 d1be
00000270: c025 06be 89f6 c5be d52f 49bc a22f 8fbf
00000280: 95d7 4abf e097 aa3e 1820 e83e fc08 b6be
00000290: 158e b43e 4d79 66bf 67e4 5fbe 9eba d93e
000002a0: ad47 0b3f 16bd babe 8068 8bbd 7e7c 973f
000002b0: 7ace 253f 8f29 283e a452 b9bd abcc bbbe
000002c0: a6b6 913e f23c 343f 4674 a83d a677 11be
000002d0: a0bd 863e 47fa e63e 3734 4cbe 83e4 98bf
000002e0: 86b0 ebbe d2a3 21bd 61a3 cb3e e14e 33be
000002f0: 1ce9 9abd cd64 82bf 86c9 5cbf 32f1 303e

bias f4 [32]
-0.094633505 0.01434137 0.40600199 -0.17820641 0.19383909 0.38628584 0.4787076 -0.5112514
0.16779074 0.17657176 -0.10695506 0.25205654 -0.061680194 -0.19742553 -0.49655935 0.3442071
-0.34078076 0.036718618 0.32900074 -0.22493678 0.39061502 0.41784143 -0.10806045 -0.5895191
0.50112283 -0.060024243 0.43819404 0.11328596 -0.52762526 0.17276521 0.20522955 0.34828496
00000000: 36cf c1bd 11f8 6a3c 7edf cf3e be7b 36be
00000010: c17d 463e 42c7 c53e 2a19 f53e 5fe1 02bf
00000020: 56d1 2b3e 3acf 343e 410b dbbd 8e0d 813e
00000030: 5fa4 7cbd eb29 4abe 073d febe ea3b b03e
00000040: d17a aebe 4366 163d c972 a83e d455 66be
00000050: b1fe c73e 50ef d53e cc4e ddbd b9ea 16bf
00000060: 9649 003f fbdb 75bd f85a e03e 7802 e83d
00000070: 7312 07bf 5de9 303e b227 523e 6852 b23e

weight f4 [32, 32]
0.2800819 -0.08581668 -1.0384101 -0.113205284 -0.20681298 -0.5616838 -0.05193048 1.0384486
-0.4228663 -0.74996376 0.6195265 -0.90580297 0.33268565 0.7492296 0.6307804 -0.35647085
0.16243762 -0.70352817 -0.71971774 0.60958266 -1.0926718 -0.86217624 -0.19443408 0.9196712
-0.5252553 0.2587316 -0.54155993 -0.034895238 0.61396044 0.042171463 -0.33877817 -0.25322762
-0.51080585 0.36794263 1.0477347 -0.10519927 0.31655148 0.4283557 0.13472754 -1.1365443
0.4855553 0.65039086 -0.600171 0.96603715 -0.72937125 -0.7413256 -0.58176947 0.24853545
-0.42592472 0.53122467 0.8792937 -0.8106118 1.1960056 0.98189044 0.20727642 -0.9818107
0.73814493 -0.6471904 0.7504886 0.11645421 -0.6730301 0.051913608 0.56708854 0.5894015
-0.38102677 0.12764786 0.8740867 0.17821033 0.39966115 0.4154454 -0.0045358706 -1.0850686
0.59232706 0.56002325 -0.889796 0.9878301 -0.7307585 -0.9489471 -0.74595976 0.2765441
-0.24729814 0.5576112 0.92910105 -0.70459324 1.0973704 0.78006905 0.12671791 -0.9719451
0.7106876 -0.50058085 0.68839973 0.056955785 -0.73519164 0.012798101 0.33704212 0.45840544
-0.6520503 0.37437835 1.3200935 -0.0482139 0.6403323 0.74638337 0.18363598 -1.3448006
0.62446046 0.9170968 -1.0197374 1.2834876 -1.0696089 -1.109892 -1.299067 0.70989615
-0.5383554 1.2038422 1.3341572 -1.2247596 1.4532061 1.3861244 0.16658938 -1.497874
1.0455216 -0.5570749 0.7985759 0.21866652 -1.1015021 -0.15184647 0.6807512 0.8729992
-0.36212316 0.36787298 1.1934333 -0.004779253 0.35818765 0.6354055 0.15111023 -1.0680445
0.5756465 0.7826062 -0.6175809 1.0662091 -0.7411695 -0.9301628 -0.91155237 0.34078228
-0.27568558 0.6644413 1.0501915 -0.98596686 0.8759389 1.0061532 0.04531552 -1.0803609
0.79121536 -0.5269722 0.76740295 0.14520372 -0.7305599 -0.02331054 0.5863371 0.55651224
-0.20765038 0.3786741 1.0527943 -0.08788038 0.57459974 0.68304676 0.010317736 -0.9978996
0.38325858 0.77985585 -0.8445166 1.0585911 -0.5913071 -0.82528704 -0.61848056 0.3259286
-0.31441784 0.6214281 0.6924799 -0.75600576 1.1633111 0.8907424 0.22826448 -1.0831485
0.6556657 -0.4219411 0.7278224 0.1602501 -0.5786045 -0.1287486 0.3825736 0.36004862
-0.462527 0.18349269 1.483004 -0.040871177 0.5982529 0.60554916 0.14447176 -1.6753631
0.4883975 1.1555939 -1.3883159 1.595542 -0.9122566 -1.3127491 -1.4581757 0.6908201
-0.29811472 1.2543823 1.2756743 -1.4024588 1.7013361 1.4561533 -0.0019203835 -1.6554122
1.1184425 -0.80773246 0.9144362 0.19462712 -1.0472355 0.11551216 0.49363798 0.5433204
-0.17156266 0.14662829 0.881774 0.027026515 0.528792 0.47822285 0.1538877 -0.65809363
0.49412307 0.7087693 -0.50783706 0.70551974 -0.5779385 -0.50187665 -0.56034195 0.13815995
-0.14257994 0.67740136 0.8384466 -0.7881833 1.0150772 0.8657929 0.11501079 -0.7441926
0.48589063 -0.46425033 0.3956684 0.19249925 -0.70708567 -0.07504702 0.18098176 0.4426
00000000: e566 8f3e a8c0 afbd 9fea 84bf 2cd8 e7bd
00000010: c8c6 53be 82ca 0fbf 0eb5 54bd e2eb 843f
00000020: ef81 d8be a0fd 3fbf 4a99 1e3f b4e2 67bf
00000030: c655 aa3e 83cd 3f3f d37a 213f 5983 b6be
00000040: 0c56 263e 6c1a 34bf 6c3f 38bf 9c0d 1c3f
00000050: abdc 8bbf 95b7 5cbf ba19 47be 926f 6b3f
00000060: 2277 06bf 7878 843e aca3 0abf 4fee 0ebd
00000070: 832c 1d3f fcbb 2c3d 5574 adbe 0da7 81be
00000080: 2cc4 02bf fa62 bc3e 2c1c 863f b772 d7bd
00000090: 0913 a23e 7051 db3e 04f6 093e 497a 91bf
000000a0: b49a f83e 0480 263f cfa4 19bf 364e 773f
000000b0: 13b8 3abf 84c7 3dbf d8ee 14bf 1480 7e3e
000000c0: ce12 dabe 57fe 073f 6419 613f 4184 4fbf
000000d0: b616 993f 2c5d 7b3f 4540 543e f257 7bbf
000000e0: 11f7 3c3f 45ae 25bf 0520 403f 8b7f ee3d
000000f0: b34b 2cbf 5da3 543d b72c 113f 04e3 163f
00000100: f115 c3be 1fb6 023e 25c4 5f3f c57c 363e
00000110: 63a0 cc3e 42b5 d43e a4a1 94bb 87e3 8abf
00000120: bfa2 173f af5d 0f3f acc9 63bf 6fe2 7c3f
00000130: fd12 3bbf 32ee 72bf 38f7 3ebf 3097 8d3e
00000140: b93b 7dbe 9cbf 0e3f 91d9 6d3f 3960 34bf
00000150: a276 8c3f 9bb2 473f 57c2 013e 65d1 78bf
00000160: 9fef 353f 1126 00bf f73a 303f 784a 693d
00000170: 8535 3cbf 20af 513c c990 ac3e 1eb4 ea3e
00000180: c5ec 26bf 85ae bf3e d3f8 a83f f07b 45bd
00000190: d1ec 233f fb12 3f3f 120b 3c3e 6d22 acbf
000001a0: a4dc 1f3f dbc6 6a3f c186 82bf 5249 a43f
000001b0: f2e8 88bf f110 8ebf d447 a6bf c1bb 353f
000001c0: a9d1 09bf 8017 9a3f aac5 aa3f ecc4 9cbf
000001d0: a802 ba3f 866c b13f 6896 2a3e 56ba bfbf
000001e0: a7d3 853f 769c 0ebf 786f 4c3f 1eea 5f3e
000001f0: 05fe 8cbf a47d 1bbe b645 2e3f e07c 5f3f
00000200: 3568 b9be d959 bc3e 6cc2 983f 489b 9cbb
00000210: 5f64 b73e efa9 223f a4bc 1a3e afb5 88bf
00000220: 925d 133f e158 483f c819 1ebf 8a79 883f
00000230: 49bd 3dbf 261f 6ebf 7f5b 69bf 047b ae3e
00000240: a926 8dbe d318 2a3f ad6c 863f 5368 7cbf
00000250: 883d 603f a1c9 803f c49c 393d 4449 8abf
00000260: 178d 4a3f a6e7 06bf 8574 443f 49b0 143e
00000270: f905 3bbf bff5 bebc 301a 163f 9677 0e3f
00000280: 4da2 54be 92e1 c13e f7c1 863f a1fa b3bd
00000290: f818 133f 27dc 2e3f b90b 293c 5976 7fbf
000002a0: 783a c43e a2a4 473f 3d32 58bf ea7f 873f
000002b0: e75f 17bf 0346 53bf be54 1ebf 1de0 a63e
000002c0: 60fb a0be e915 1f3f 5d46 313f 9889 41bf
000002d0: 61e7 943f b207 643f 2abe 693e 9ca4 8abf
000002e0: b5d9 273f aa08 d8be 9252 3a3f 9a18 243e
000002f0: 6d1f 14bf acd6 03be b0e0 c33e 4b58 b83e
00000300: 57d0 ecbe 82e5 3b3e 13d3 bd3f 8968 27bd
00000310: 1a27 193f 4505 1b3f 68f0 133e 4c72 d6bf
00000320: 3d0f fa3e 80ea 933f 56b4 b1bf b83a cc3f
00000330: a689 69bf 2a08 a8bf 80a5 babf 96d9 303f
00000340: 7ea2 98be 998f a03f 4c49 a33f c583 b3bf
00000350: 62c5 d93f 3b63 ba3f 61b5 fbba 8ce4 d3bf
00000360: 2029 8f3f 8ec7 4ebf 7e18 6a3f 554c 473e
00000370: d00b 86bf a491 ec3d 1ebe fc3e 0c17 0b3f
00000380: 1fae 2fbe ba25 163e f1bb 613f b666 dd3c
00000390: ea5e 073f a0d9 f43e bd94 1d3e d378 28bf
000003a0: b3fd fc3e e871 353f 9c01 02bf f19c 343f
000003b0: c7f3 13bf fd7a 00bf 9272 0fbf cd79 0d3e
000003c0: 7a00 12be 2d6a 2d3f 70a4 563f 61c6 49bf
000003d0: 0dee 813f 9aa4 5d3f c78a eb3d 6883 3ebf
000003e0: a8c6 f83e 38b2 edbe 0c95 ca3e 861e 453e
000003f0: 9103 35bf 41b2 99bd 4853 393e 789c e23e

bias f4 [32]
-0.22500831 0.14218532 0.21011169 0.21386945 0.1375162 0.1692806 0.07258642 0.029223302
0.123165004 -0.22414806 -0.17080651 -0.17221503 0.17286915 0.19271405 -0.07072275 -0.1671771
0.15109189 -0.0051190485 -0.1954401 0.23273858 0.257109 0.030609174 -0.13476719 -0.10801565
-0.078442276 -0.14723161 0.05343957 0.15952052 -0.100942165 0.003086276 -0.012768749 -0.051066346
00000000: 9468 66be 0799 113e 8527 573e 9800 5b3e
00000010: 0cd1 0c3e e557 2d3e 30a8 943d b565 ef3c
00000020: ef3d fc3d 1287 65be e7e7 2ebe 2359 30be
00000030: 9c04 313e d556 453e 17d7 90bd 7930 2bbe
00000040: d5b7 1a3e b1bd a7bb 7321 48be 0653 6e3e
00000050: caa3 833e 17c0 fa3c 6900 0abe 4f37 ddbd
00000060: 58a6 a0bd e2c3 16be 73e3 5a3d 5959 233e
00000070: c4ba cebd 1e43 4a3b 0434 51bc f22a 51bd

weight f4 [1, 32]
-1.1111522 0.9865694 1.2391003 1.1664509 1.011096 1.1400833 1.7460736 0.97029614
1.0465695 -1.1175597 -1.23059 -0.8861853 1.0621011 1.2862428 -0.9267571 -0.947609
1.0228388 -1.102956 -0.88464373 1.2034214 1.1685394 1.0878156 -1.0033792 -1.1576792
-0.8258199 -0.9755913 1.5031197 1.1919075 -1.0245523 1.132371 1.2948351 -1.1098844
00000000: 3c3a 8ebf d08f 7c3f d79a 9e3f 434e 953f
00000010: 986b 813f 40ee 913f 577f df3f 5465 783f
00000020: fdf5 853f 320c 8fbf f983 9dbf 0add 62bf
00000030: eef2 873f 9ba3 a43f f43f 6dbf 8196 72bf
00000040: 62ec 823f aa2d 8dbf 0378 62bf b609 9a3f
00000050: b392 953f 8b3d 8b3f bb6e 80bf d52e 94bf
00000060: ef68 53bf 5ac0 79bf 3a66 c03f 6d90 983f
00000070: 8824 83bf 88f1 903f 28bd a53f b110 8ebf
