mlcolvar_committor/models/model_7_z.pt (torch, 21751 bytes, 6 tensors)

mass f4 [6]
0	0x41b7eb1c	22.9898
1	0x41b7eb1c	22.9898
2	0x41b7eb1c	22.9898
3	0x47747530	62581.188
4	0x47747530	62581.188
5	0x47747530	62581.188

weight f4 [32, 6]
0	0xbe9d4dcb	-0.30723414
1	0x3bc6f7b2	0.006072008
2	0xbd0a5aff	-0.033778187
3	0x3f9a637a	1.2061608
4	0xbc366f75	-0.011134972
5	0x3d89bebe	0.06725834
6	0x3e1bd5cc	0.15218276
7	0x3dca293f	0.09871148
8	0x3eb67343	0.35634813
9	0x3f2da824	0.6783469
10	0x3ea2d351	0.31801847
11	0xbe9f4c43	-0.3111287
12	0xbeb86556	-0.36014813
13	0x3df5d82b	0.120041214
14	0x3eb42311	0.35183004
15	0x3f9a253e	1.2042615
16	0x3ef093ec	0.46987855
17	0xbed8359a	-0.42228395
18	0x3dc7f29e	0.097630724
19	0xbec75d16	-0.38938206
20	0x3debab52	0.11507286
21	0x3f10d442	0.5657388
22	0x3ed1fe98	0.41014552
23	0xbe062393	-0.13099508
24	0xbe097a1e	-0.1342549
25	0xbe113990	-0.14182115
26	0xbe43813a	-0.19092265
27	0xbee9a83e	-0.4563617
28	0xbead166f	-0.33806178
29	0x3e7ec0d3	0.24878244
30	0x3e58b389	0.21162237
31	0x3e41fd40	0.18944263
32	0xbd710cfc	-0.058850273
33	0xbfa48e30	-1.2855892
34	0x3e50238d	0.20326062
35	0x3eaacec6	0.3336088
36	0xbea834c2	-0.3285275
37	0x3d758dbc	0.05994962
38	0xbd5c6ec7	-0.053816583
39	0x3f9c6b06	1.2220161
40	0x3e015dd0	0.12633443
41	0x3d06f14a	0.032944955
42	0x3de4fe3e	0.11181305
43	0xbe1f2fd9	-0.15545596
44	0x3d65cb81	0.05610228
45	0xbf7b5edd	-0.98191625
46	0xbea8bea1	-0.32957938
47	0x3e398628	0.18117583
48	0x3e54e523	0.20790534
49	0xbe588416	-0.21144137
50	0xbe153c6f	-0.14573835
51	0xbf8d3104	-1.1030583
52	0xbcadf0aa	-0.021232922
53	0xbe80630a	-0.2507556
54	0x3d8b13a9	0.06790859
55	0xbebc2ea7	-0.36754343
56	0x3d81ca52	0.06337418
57	0x3f878fb4	1.059073
58	0xbc334509	-0.010941752
59	0x3e9675a2	0.29386622
60	0xbe198ce2	-0.14995149
61	0xbe1360f6	-0.14392456
62	0xbea83a7f	-0.3285713
63	0x3f81c8b3	1.0139374
64	0xbd5b8206	-0.053590797
65	0x3e2b449f	0.16725396
66	0x3e75da37	0.24009024
67	0xbddd53ee	-0.10807024
68	0xbebecc0f	-0.3726506
69	0xbedf7d30	-0.43650198
70	0xbe99082f	-0.29889056
71	0x3e7246d5	0.23659833
72	0xbe033403	-0.1281281
73	0xbd0db358	-0.034594864
74	0x3dc6968d	0.09696684
75	0xbf7d9da2	-0.99068654
76	0xbea4111c	-0.32044303
77	0x3e1c928d	0.1529028
78	0xbcd4a730	-0.025958627
79	0x3e503f15	0.20336564
80	0x3e3302ec	0.17481583
81	0xbf40335d	-0.75078374
82	0xbec91b08	-0.39278436
83	0xbe8d3bc9	-0.27584675
84	0x3cb03e4e	0.021514084
85	0xbeb32d45	-0.34995475
86	0xbe635050	-0.22198606
87	0x3fa354b7	1.2760228
88	0x3ed341ea	0.41261226
89	0x3c8d989e	0.017284688
90	0xbe913f21	-0.28368476
91	0x3dff57ef	0.12467944
92	0x3e7b9f73	0.24572544
93	0xbfcc5c83	-1.5965732
94	0x3e6edfe6	0.23327598
95	0x3dc5d656	0.09660022
96	0xbb65eb2c	-0.00350828
97	0x3e3661e3	0.17810778
98	0xbe69e2f1	-0.22840478
99	0xbf892d16	-1.0716884
100	0xbe079a2c	-0.13242406
101	0x3e084b44	0.13309962
102	0xbe519679	-0.20467557
103	0xbe845ecf	-0.25853583
104	0x3e192e59	0.14959086
105	0xbf805245	-1.0025107
106	0xbd95729a	-0.07297249
107	0x3e8635ad	0.26212826
108	0xbde2fdc2	-0.11083557
109	0x3e0c756d	0.1371667
110	0x3dcb0c07	0.099144034
111	0xbf873dc4	-1.0565724
112	0xbe8a1727	-0.2697079
113	0x3e206412	0.15663174
114	0x3e2891a0	0.16461802
115	0xbe931c2e	-0.28732437
116	0x3e4ce126	0.20007762
117	0xbf47b509	-0.7801061
118	0xbef58176	-0.47950333
119	0x3e3a0fe8	0.1817013
120	0x3e0fcca2	0.14042905
121	0x3df98cbb	0.12185045
122	0x3e4b2fe8	0.19842494
123	0x3f91969b	1.1374086
124	0x3e90bd9d	0.28269663
125	0xbdfe3394	-0.124121815
126	0x3ec5f05c	0.38659942
127	0xbe048db2	-0.12944677
128	0x3eb09fe3	0.34496984
129	0x3f32af85	0.6979907
130	0x3e9c70ec	0.30554903
131	0xbe027277	-0.12738977
132	0xbe38885c	-0.18020767
133	0x3ec3fd56	0.38279217
134	0xbe8b638b	-0.27224383
135	0x3fa49348	1.2857447
136	0x3dc58dc4	0.0964618
137	0x3d8c9d16	0.06865899
138	0x3c070c33	0.008242655
139	0xbd778248	-0.06042698
140	0xbe2afbde	-0.16697642
141	0xbf493854	-0.78601575
142	0xbeb9a094	-0.36255324
143	0x3dce0372	0.10059251
144	0x3eac0c1c	0.3360299
145	0xbda77a26	-0.08177595
146	0x3daa788a	0.08323772
147	0xbf85af86	-1.044419
148	0xbe6ada92	-0.2293494
149	0xbe349f7f	-0.17638968
150	0x3dd7a1e3	0.10528924
151	0xbec7c7c4	-0.39019597
152	0xbe8743cf	-0.2641892
153	0x3f988eee	1.1918619
154	0x3e71540f	0.23567222
155	0xbca34e59	-0.01993482
156	0x3e8466d1	0.25859693
157	0xbddaeb0c	-0.10689363
158	0x3db339a8	0.087512314
159	0x3f7496a1	0.9554234
160	0x3ec1f3e7	0.37881395
161	0xbeda65e8	-0.42655873
162	0xbc20577a	-0.009786481
163	0xbe69d2da	-0.2283434
164	0x3c453ca2	0.012038382
165	0x3f8d5cc9	1.1043941
166	0x3eb65717	0.3561332
167	0xbe762205	-0.24036415
168	0xbe38e3d4	-0.1805566
169	0xbda8356b	-0.08213314
170	0xbeaee29b	-0.3415726
171	0xbf1d3554	-0.614095
172	0xbe95fe7c	-0.2929572
173	0x3ea46438	0.3210771
174	0xbe778ffa	-0.24176016
175	0xbe86e131	-0.26343682
176	0x3e5b4c1f	0.21415757
177	0xbfae63b2	-1.3624175
178	0x3deca80e	0.115554914
179	0xbdd1d61c	-0.10245916
180	0x3d768c61	0.06019247
181	0xbd932115	-0.07184044
182	0x3db26135	0.08709947
183	0x3f57ade2	0.842497
184	0x3e32f6dd	0.17476983
185	0xbda3335f	-0.07968783
186	0x3e1bb701	0.15206529
187	0x3ed29054	0.4112574
188	0x3debb94f	0.11509954
189	0x3f5eea4a	0.87076247
190	0x3e444d69	0.19170155
191	0x3d6ae61b	0.057348352

bias f4 [32]
0	0x3c4aae23	0.012370619
1	0xbed3b5e7	-0.41349718
2	0xbe5fc9b4	-0.21854287
3	0x3d0df174	0.034654096
4	0xbd9006db	-0.070325576
5	0xbe5341a1	-0.20630504
6	0xbe5d2519	-0.21596183
7	0x3e20be3b	0.15697567
8	0x3e59e553	0.21278886
9	0xbe872414	-0.26394713
10	0x3e2705a2	0.16310742
11	0x3e790fb6	0.243224
12	0x3e5a3212	0.21308163
13	0x3ee274bc	0.44229686
14	0xbe060667	-0.1308838
15	0xbdb70551	-0.08936561
16	0x3d2d8ea5	0.042372365
17	0x3e812cea	0.2522958
18	0xbdaa4531	-0.083139785
19	0x3ea0360f	0.31291243
20	0xbe86210e	-0.26197094
21	0xbeb8585e	-0.3600492
22	0xbe3a8b0f	-0.18217109
23	0x3ea8a6ff	0.32939908
24	0x3eaa69a5	0.33283725
25	0xbca7939c	-0.020456128
26	0xbc9f1391	-0.01941851
27	0xbe29f9e3	-0.1659923
28	0x3ecd127d	0.40053168
29	0x3e12f4ed	0.14351244
30	0xbe0ee06a	-0.13952795
31	0xbea526f7	-0.3225629

weight f4 [32, 32]
0	0xbeb1ad48	-0.34702516
1	0xbec4d002	-0.38439947
2	0xbedcae5d	-0.4310178
3	0xbec819d7	-0.39082214
4	0x3e015302	0.12629321
5	0x3f522205	0.8208316
6	0xbf2fc1ed	-0.6865528
7	0x3efd2479	0.4944189
8	0x3f229543	0.63509005
9	0xbf28b77a	-0.65904963
10	0xbecdcb83	-0.4019433
11	0x3e855158	0.26038623
12	0x3f12b6da	0.5731026
13	0x3e913115	0.2835776
14	0xbf283f0e	-0.65721214
15	0x3ed835fb	0.42228684
16	0x3eda616f	0.4265246
17	0x3eecc0b3	0.46240768
18	0x3e9b4916	0.30329198
19	0x3f0354b8	0.51301146
20	0xbf26684f	-0.6500291
21	0xbf18187d	-0.59412366
22	0xbf354135	-0.70802623
23	0x3f23ab24	0.63933015
24	0x3edd59e2	0.43232638
25	0xbf2b4bd8	-0.66912603
26	0xbf078e61	-0.5295163
27	0xbefe1fa3	-0.49633512
28	0x3e42139e	0.18952796
29	0x3f55b868	0.83484507
30	0xbf17748a	-0.591622
31	0xbf3d1005	-0.7385257
32	0x3ebd5ac7	0.3698332
33	0x3e5470fa	0.20746222
34	0x3f0f6cd8	0.5602546
35	0x3e6fa303	0.23402028
36	0xbccc1378	-0.024911627
37	0xbf3894ed	-0.7210224
38	0x3f3c9809	0.7366949
39	0xbefd52dd	-0.49477282
40	0xbec00cb0	-0.3750968
41	0x3f05a6ff	0.5220794
42	0x3e14e7ef	0.145416
43	0xbd977284	-0.07394889
44	0xbefcc3ae	-0.49368042
45	0xbe7dcdaf	-0.24785493
46	0x3ec1c569	0.37845924
47	0xbebac247	-0.36476347
48	0xbea5d9e7	-0.3239281
49	0xbea7b52d	-0.32755414
50	0xbeed9ee7	-0.46410295
51	0xbedc9461	-0.43081954
52	0x3ee13d1c	0.43991935
53	0x3ef35bfc	0.47531116
54	0x3f09f4db	0.53889245
55	0xbf0197d1	-0.5062228
56	0xbf225a23	-0.6341879
57	0x3eff6a28	0.49885678
58	0x3e9a3482	0.30118185
59	0x3ec3cfbe	0.38244432
60	0xbd612db2	-0.05497522
61	0xbf2e903f	-0.6818885
62	0x3f217495	0.63068515
63	0x3f1f96b4	0.6233933
64	0x3e297e8f	0.16552185
65	0x3e4d5f95	0.20055993
66	0x3ea83443	0.32852373
67	0x3e808da1	0.25108054
68	0xbe2258ff	-0.15854262
69	0xbf2fa35a	-0.6860863
70	0x3f12bf6e	0.5732335
71	0xbeb04831	-0.34430078
72	0xbe9dea59	-0.30842856
73	0x3ed565c1	0.41679195
74	0x3e3cf13f	0.18451403
75	0x3d06b2b0	0.032885253
76	0xbe97f331	-0.29677728
77	0xbe379ac4	-0.17930132
78	0x3ebbaffa	0.36657697
79	0xbe7928b9	-0.2433194
80	0xbefdf190	-0.4959836
81	0xbd9d6576	-0.07685368
82	0xbee8f941	-0.45502666
83	0xbe7f1fd6	-0.24914488
84	0x3ec13fc0	0.3774395
85	0x3efbed7f	0.49204633
86	0x3eec6a50	0.4617486
87	0xbedcf5a7	-0.43156168
88	0xbedf89df	-0.43659875
89	0x3ef3ca84	0.47615445
90	0x3e7ec27c	0.24878877
91	0x3edfebe0	0.43734646
92	0xbca7f718	-0.020503566
93	0xbec582b6	-0.38576287
94	0x3f092c21	0.5358296
95	0x3f2a074e	0.66417396
96	0xbebe056f	-0.3711352
97	0xbe241f80	-0.16027641
98	0xbf087c70	-0.53314877
99	0xbe81cbe5	-0.25350872
100	0x3e4f36a5	0.20235689
101	0x3f285978	0.6576152
102	0xbf029e4d	-0.510228
103	0x3e9e013c	0.30860317
104	0x3ef0cae5	0.47029796
105	0xbf2893ed	-0.65850717
106	0xbe0e880c	-0.13919085
107	0x3d24f3f3	0.04027171
108	0x3ec67652	0.38762146
109	0x3e9b5e99	0.3034561
110	0xbea93165	-0.33045498
111	0x3e9f45f5	0.3110806
112	0x3eb349f7	0.35017368
113	0x3ebd13e6	0.36929244
114	0x3e8c7a7e	0.27437204
115	0x3eb3bcfe	0.35105127
116	0xbefad1c1	-0.48988155
117	0xbeba6c74	-0.36410868
118	0xbf1e0ae8	-0.6173539
119	0x3ecbb565	0.3978683
120	0x3f06f439	0.52716404
121	0xbeb94357	-0.3618419
122	0xbed31eb5	-0.41234365
123	0xbeff9f40	-0.49926186
124	0x3e51e93d	0.2049913
125	0x3f0d0498	0.55085135
126	0xbf1f831c	-0.6230943
127	0xbf097338	-0.53691435
128	0x3e875130	0.2642913
129	0x3e95114e	0.29114765
130	0x3f2a5973	0.6654274
131	0x3ea84f21	0.3287287
132	0xbe486202	-0.19568637
133	0xbf1c9651	-0.61166865
134	0x3f210273	0.6289436
135	0xbf1647d8	-0.58703375
136	0xbf00d7d6	-0.5032934
137	0x3f32548e	0.6966027
138	0x3e81c7df	0.25347802
139	0xbe31419e	-0.17310187
140	0xbf42a538	-0.76033354
141	0xbeefe450	-0.46853876
142	0x3f10dc41	0.5658608
143	0xbeea82be	-0.45802873
144	0xbf2e064a	-0.67978346
145	0xbee40d79	-0.4454153
146	0xbf0d0e71	-0.5510016
147	0xbee025b6	-0.4377877
148	0x3f2cd0ab	0.675059
149	0x3f13217c	0.5747297
150	0x3f691c5c	0.910589
151	0xbf05ec15	-0.5231336
152	0xbf13a53d	-0.5767401
153	0x3f1eebc9	0.6207853
154	0x3ee8560c	0.4537815
155	0x3f242b28	0.6412835
156	0xbe1b7af7	-0.15183626
157	0xbf36f100	-0.71461487
158	0x3f49f46d	0.7888859
159	0x3f4a318f	0.7898187
160	0xbeaf11a3	-0.34193143
161	0xbe5b533a	-0.21418467
162	0xbe8ee44e	-0.27908558
163	0xbe989ea7	-0.29808542
164	0x3ddb533e	0.107092366
165	0x3f338c82	0.7013627
166	0xbf13554b	-0.5755202
167	0x3ef1e7fe	0.47247308
168	0x3ef86cc5	0.48520485
169	0xbf3a4606	-0.727631
170	0xbe24c714	-0.16091567
171	0x3dbbe5c6	0.09174685
172	0x3e9ab820	0.302186
173	0x3e57b935	0.21066745
174	0xbecc022b	-0.39845404
175	0x3f140feb	0.5783679
176	0x3ea63095	0.3245894
177	0x3e1523a9	0.14564385
178	0x3ea24870	0.3169589
179	0x3eabb3c6	0.33535594
180	0xbf187c48	-0.5956464
181	0xbea94b4e	-0.33065265
182	0xbf11a0c2	-0.5688592
183	0x3f0955de	0.5364665
184	0x3eee6b40	0.465662
185	0xbea37646	-0.31926173
186	0xbe9ec714	-0.3101126
187	0xbed3e5b4	-0.41386187
188	0x3e805166	0.25062102
189	0x3f09323e	0.5359229
190	0xbf1bbcc8	-0.6083493
191	0xbf07bd14	-0.53022885
192	0x3e905ca4	0.2819568
193	0x3e82af56	0.25524396
194	0x3eeba47f	0.46023938
195	0x3e5e8814	0.21731597
196	0xbe790a8f	-0.24320434
197	0xbf11686f	-0.5679998
198	0x3f2c03d4	0.6719334
199	0xbf01ff0f	-0.50779814
200	0xbecef376	-0.4042012
201	0x3f543571	0.82894045
202	0x3e7ea056	0.24865851
203	0xbd7adf73	-0.061248254
204	0xbf20901d	-0.627199
205	0xbef6fe44	-0.48240864
206	0x3f05d062	0.5227109
207	0xbef222d9	-0.47292212
208	0xbedf053f	-0.4355869
209	0xbe8a8ba6	-0.27059668
210	0xbee4d985	-0.44697204
211	0xbeb4fcfc	-0.35349262
212	0x3f186272	0.59525216
213	0x3ebb6892	0.36603218
214	0x3f26905c	0.65064025
215	0xbf17ca8c	-0.59293437
216	0xbf102655	-0.5630849
217	0x3ed2dadb	0.41182598
218	0x3f24908c	0.6428306
219	0x3f14e204	0.5815737
220	0xbe1d084a	-0.15335193
221	0xbf3f0b33	-0.74626464
222	0x3f5f8503	0.87312335
223	0x3f312bdd	0.69207555
224	0xbe9aef9c	-0.30260932
225	0xbeabe67b	-0.3357428
226	0xbf03854e	-0.5137528
227	0xbdd79823	-0.10527065
228	0x3e662996	0.22476801
229	0x3f01ee1c	0.5075395
230	0xbf1e797e	-0.6190413
231	0x3f0ab991	0.541894
232	0x3ef11d03	0.47092447
233	0xbf452515	-0.7700971
234	0xbe81fadf	-0.25386712
235	0x3e80b0f4	0.25135005
236	0x3efd0826	0.4942028
237	0x3ea7f649	0.32805088
238	0xbf041303	-0.5159151
239	0x3ef6ae63	0.48179922
240	0x3eb4d627	0.35319635
241	0x3e0ebc38	0.13938987
242	0x3e87dd2a	0.26535922
243	0x3efd1d00	0.49436188
244	0xbf2c7069	-0.67359024
245	0xbf059a4a	-0.5218855
246	0xbee8014e	-0.45313495
247	0x3ed569f7	0.41682407
248	0x3f1345c2	0.57528317
249	0xbf1bcd37	-0.6086001
250	0xbefa9378	-0.48940635
251	0xbeced5db	-0.40397534
252	0x3ea14d5c	0.31504333
253	0x3f49be01	0.7880555
254	0xbf1c745c	-0.6111505
255	0xbf396308	-0.72416735

bias f4 [32]
0	0x3d995306	0.074865386
1	0xbd3c14b5	-0.045918185
2	0xbe5b3b96	-0.21409449
3	0x3d46ad61	0.04850519
4	0xbdb0abce	-0.08626519
5	0x3de9a8ef	0.11409175
6	0xbdc8339f	-0.09775471
7	0xbbb9d715	-0.0056713917
8	0xbe3d2f40	-0.18475056
9	0x3d95401d	0.07287619
10	0x38fe97b2	0.00012139919
11	0x3d1a7cd7	0.037716713
12	0x3d153fb5	0.03643771
13	0xbdfbd01e	-0.122955546
14	0x3da21581	0.07914258
15	0xbd823fef	-0.063598506
16	0x3db15f55	0.08660761
17	0x3da996ce	0.08280717
18	0xbc0de79b	-0.008661176
19	0xbcccfa7b	-0.025021782
20	0x3d8ee166	0.06976585
21	0xbe425371	-0.18977143
22	0xbd731d59	-0.05935416
23	0x3db4bf57	0.08825558
24	0xbd5988fc	-0.053109154
25	0x3e1701eb	0.14746825
26	0xbd8e2dd5	-0.069423355
27	0xbca507cb	-0.020145318
28	0x3de762a5	0.11298112
29	0x3dc92b36	0.09822695
30	0x3e10bf7c	0.14135545
31	0xbb9f53f8	-0.004862305

weight f4 [1, 32]
0	0x3f2f02c7	0.6836361
1	0xbf5011f1	-0.81277376
2	0xbf56a211	-0.83841044
3	0x3f49dae0	0.788496
4	0xbf4c3a31	-0.79776293
5	0x3f4a5e1a	0.7904984
6	0xbf755eb6	-0.9584764
7	0x3f295522	0.6614553
8	0xbf4bb077	-0.7956614
9	0xbf3ae60f	-0.7300729
10	0xbf49ec9c	-0.7887666
11	0xbf61f636	-0.88266313
12	0xbf5685fa	-0.8379818
13	0xbf3a0a02	-0.7267152
14	0xbf5168ea	-0.8180071
15	0xbf5cf8ef	-0.8631734
16	0x3f5df9f9	0.86709553
17	0x3f4079a1	0.7518559
18	0x3f56b4bb	0.8386952
19	0xbf589fd7	-0.84618896
20	0x3f50a329	0.8149896
21	0xbf3b11ad	-0.73073846
22	0xbf4121e1	-0.7544232
23	0x3f479d52	0.77974427
24	0xbf365e20	-0.71237373
25	0x3f511c8a	0.8168417
26	0xbf6768a3	-0.9039404
27	0x3f6fd173	0.9367897
28	0x3f3859d3	0.7201206
29	0x3f21ceae	0.63205993
30	0x3f53f4b0	0.8279524
31	0x3f4eeb30	0.8082762
