mlcolvar_committor/models/model_0_z.pt (torch, 21325 bytes, 6 tensors)

mass f4 [6]
00000000: 1ceb b741 1ceb b741 1ceb b741 3075 7447
00000010: 3075 7447 3075 7447
22.9898 22.9898 22.9898 62581.188 62581.188 62581.188

weight f4 [32, 6]
00000000: d4dd b0bc 63e2 ab3d bf3a c3be 1e1a b73f
00000010: f24b 30bd 1434 42bd c7c8 14be 4f06 03be
00000020: a7e0 273e 0dc9 803f 2a00 053d b1e6 0f3d
00000030: 9f4b 213e 2680 113d be82 9bbe 00e3 88bf
00000040: 4760 26bf 0fd5 e83d 2428 9d3e f5b9 c13c
00000050: e288 60bd 19cb 95bf c678 51be 3a8f 31bd
00000060: fa57 023d 3a43 c1bd ac83 6c3e 1b7e 473f
00000070: 5fca 043f 1e4b 083e f3bb cdbd caaa a93e
00000080: f4a9 5bbe 062a 32bf 8e97 61be cd6c 303e
00000090: 6753 56be 6dac b43d d89a 7f3d f15c 293f
000000a0: 6506 033f a893 8cbe 0c80 afbe b282 19be
000000b0: 4028 7b3e 4625 a93f baf8 90be 281d fabc
000000c0: 6df3 63bd 2243 eb3e f050 5f3e 014d bebf
000000d0: 4ac7 833d 85d9 8f3d 7639 fb3e 863b 963e
000000e0: 920f 12be 6b79 8b3f e123 313f 2045 a3be
000000f0: be44 8a3e f28b 93be 82d5 95be d13c 3b3f
00000100: 3a68 ce3d 33a9 adbe ccd9 0dbe a0c0 e0bd
00000110: 28db 593e 0d7f b1bf 9c40 92bd a82a 623e
00000120: bd13 923e ebbd a33e a35e 19be dca1 86bf
00000130: 56f2 a4be 7503 823d 67d4 053e ef51 d3bc
00000140: beec eabd b9f4 3c3f cc85 9d3e 4b12 9f3d
00000150: 67cb 903e 086a 59bc 4482 f83e ec9a 893f
00000160: 79f5 143e 1283 063e 6640 9b3e 7ec2 16bd
00000170: 8db8 153e 0dce 94bf 080c fbbe d9c2 de3e
00000180: 3d3b 9dbe b346 a3bd 6cc5 81be 7b34 acbf
00000190: a743 6d3e 8e24 66bd 6e43 813e 61dd 03be
000001a0: ac57 0cbb 8113 c0bf eb5f 343d 741f 7a3d
000001b0: 7ad9 bbbe b18c 3abe 2645 a03d e347 19bf
000001c0: 5215 09bf 4296 953e 5534 113e 26c8 52be
000001d0: 6646 fd3d df3a 933f 1ff5 e13e 0733 263b
000001e0: e2c3 96be 3fe1 b8be ae88 02bf 9abe 9d3f
000001f0: e6e6 e83e c852 94bd 6ba6 dc3e 5a41 e63e
00000200: ca7f e43e 8527 30bf cbd1 fcbe 4cca 54bd
00000210: 6614 90be 425e 3bbe f743 2dbe 949e 843f
00000220: e78a ef3e 91b8 83be ac8a 4c3b c1fc 2a3f
00000230: d468 223e de75 bd3f 2bb1 d43d 1d22 64be
00000240: 6c5f 373c 71f0 c3bd 284f 11bd d67f a63f
00000250: c2ef bf3e 298b 51be c7f7 733e 9005 14be
00000260: 2c80 d33d c428 493f 00e3 1f3f 82ed f1bb
00000270: 4d2d 403d 64b9 9c3e cc20 8c3e f8c2 36bf
00000280: 9d12 1dbf 4a5e bd3d b9ee f33e 04b6 953e
00000290: 57ca a6bd 79b3 9f3f 3398 883e 2c87 813e
000002a0: aa25 07bd a30b cfbc 8856 82be 0c91 893f
000002b0: 6667 f53e cd8b 0cbe 27b1 903e 036d 6d3e
000002c0: ff6a 00bd 77bb 9e3f a171 19bd 5209 07be
000002d0: 99ff 5c3d 6fc3 1e3c 2477 2abe f3ac b2bf
000002e0: c0ff 413e 0291 f83c 00b5 b73e 2e56 8bbe
000002f0: 17e9 7abe c1e9 43bf 41ec 18bf e1d5 ed3e
-0.02159015 0.08392789 -0.38130757 1.4304845 -0.043041177 -0.047412947 -0.14529715 -0.12795375
0.16394292 1.0061356 0.03247086 0.035132114 0.15751503 0.035522602 -0.30373186 -1.0694275
-0.6499066 0.11368763 0.30694687 0.023648242 -0.05481804 -1.1702605 -0.20456228 -0.043349482
0.031822182 -0.094366506 0.23097104 0.77926797 0.51871294 0.13309905 -0.10045614 0.33138114
-0.2145155 -0.6959537 -0.2203047 0.17229004 -0.20930253 0.0882195 0.06240353 0.6615744
0.5118163 -0.27456403 -0.3427738 -0.14991263 0.24527073 1.32145 -0.28314763 -0.03053148
-0.05565207 0.45949656 0.21808219 -1.486725 0.06434496 0.070239104 0.49067277 0.29342288
-0.14263752 1.0896429 0.6919537 -0.31888676 0.2700557 -0.28817707 -0.29264456 0.73139673
0.100784734 -0.3391815 -0.13852614 -0.1097424 0.21275008 -1.3866898 -0.071412295 0.22086585
0.28530684 0.31980833 -0.14977507 -1.0518146 -0.32216138 0.063483156 0.13069306 -0.025795905
-0.11470936 0.7381092 0.3076614 0.07767161 0.28280184 -0.013269909 0.48536885 1.0750403
0.14546765 0.13135937 0.3032257 -0.036806576 0.14621182 -1.1625382 -0.49032617 0.43508032
-0.30709258 -0.07972469 -0.25345933 -1.3453516 0.23170339 -0.056187205 0.25246757 -0.12877418
-0.0021414561 -1.5005952 0.044036787 0.061065152 -0.3668936 -0.18217732 0.07825689 -0.59875315
-0.5354816 0.292162 0.1418012 -0.20584163 0.12366943 1.1502341 0.44132325 0.0025360005
-0.29446322 -0.3610935 -0.50989807 1.2323792 0.45488662 -0.07242352 0.43095717 0.44971734
0.44628745 -0.688103 -0.4937881 -0.051950738 -0.28140563 -0.18297675 -0.16920458 1.0360894
0.46785662 -0.2572675 0.0031210585 0.6679192 0.15860301 1.4801595 0.103853546 -0.22278638
0.011192184 -0.09567345 -0.03547588 1.3007762 0.37487608 -0.20463242 0.23824988 -0.14455247
0.10327181 0.7857783 0.6245575 -0.0073830495 0.046918202 0.30610192 0.27368772 -0.7139125
-0.61356527 0.092465 0.47643068 0.2924043 -0.08144062 1.2476646 0.2667862 0.2529844
-0.032994904 -0.025274104 -0.25456643 1.074739 0.4793045 -0.13725205 0.28260157 0.23186116
-0.03135204 1.240096 -0.03746188 -0.13187149 0.053954694 0.00969015 -0.16647011 -1.395903
0.18945217 0.030342583 0.3588028 -0.27214187 -0.24502979 -0.76528555 -0.59735495 0.4645224

bias f4 [32]
00000000: 1240 24ba f008 89be d054 db3e 8b7c 913e
00000010: ce0b b4be 30cc 32be fb9d 53be 1d90 d0bd
00000020: a115 98bd 1647 aebe 0ad7 44be d24d cb3d
00000030: fac6 393d 45b8 a0be aaea d1be f126 7a3d
00000040: 8c91 5c3e 1cbe a63d b660 913e 1425 61be
00000050: f02e a63c 14f6 3d3e e681 0dbd e216 90be
00000060: ca09 cabd 5b29 c1be 7e5a 2c3e 3b7b e8be
00000070: 17da 18be 2a3f cfbd 92a1 72bd b70c 613e
-0.0006265651 -0.2676463 0.42838144 0.2841533 -0.35165256 -0.17460704 -0.20665734 -0.101837374
-0.074260004 -0.3403861 -0.19222656 0.099269524 0.045355774 -0.31390586 -0.40999347 0.061072294
0.21539897 0.08141729 0.28394097 -0.219868 0.020286053 0.18550903 -0.03454771 -0.28142458
-0.09865148 -0.37726864 0.16831395 -0.45406517 -0.14926945 -0.101194695 -0.059236117 0.21977507

weight f4 [32, 32]
00000000: 9dc8 d83e 13be 513e 0e44 15bf 32ab 55be
00000010: 3199 aa3e 03e9 27bd 65f7 a53e 2876 c33d
00000020: 0738 d8be 9a40 c73e 1568 f7bc 14a9 e4bd
00000030: 8284 a1bd 7e0b 423e f786 153f affd b2be
00000040: fd65 0bbe c39f 53be 03fa 90be b4bf 263e
00000050: 25b5 913e c620 1bbd ac4f a43e 6958 9c3e
00000060: f7f0 b33e cbc4 df3e 8a50 d8be 1199 183f
00000070: 784d 1a3f f221 263f 6716 71be 9a40 d6be
00000080: 1222 d6be d848 6c3c cbf1 c63e 2e60 a63e
00000090: 19da b4be b684 143e 13f2 d9be e796 c8be
000000a0: 5115 c83e 8f34 bcbe 96dc 39bd 109b 163e
000000b0: e384 453e 089d 0dbe d8ec f5be 86ea 0e3f
000000c0: ec46 8e3e 630d 623e 62a2 a23e 3c59 75be
000000d0: b332 c6bc 3ddf a93e a16d aebe 0b56 73be
000000e0: 4e29 6f3c b3e3 e4be 7eab cc3e ab7d a0be
000000f0: 3099 d5be d59e 4cbf 34e8 c4bc 1ea6 d73e
00000100: 8f1e 26bf c574 9fbe b7bd 1a3f a5f4 593e
00000110: 53bc 9dbe ec11 2b3e 7c78 c7be 4880 35be
00000120: a7a3 693e b8fe 4cbe ad13 5abe b37e a63c
00000130: eb25 873d d0ab 11be 58f6 03bf b976 c93e
00000140: 9ac7 553d cc88 9d3e 473c 873e 999c 27be
00000150: aa25 8fbe 9554 ad3d 4cd7 15be e73b 58be
00000160: 9d41 85bd 36e0 d8be ade9 e23e 09d6 90be
00000170: dd11 dbbe 5059 3ebf a596 003e f7d8 a83e
00000180: 138f 643f 433d da3d c4bc 33bf fb0e 1fbf
00000190: 2c1d e23e feef 1fbe d5c3 3e3f dade 7a3e
000001a0: 8990 3cbf 65b8 043f 69ea 793e f7cd b9be
000001b0: c39f 9bbe 13ca 073f 2af3 0e3f 54b3 15bf
000001c0: 0c13 b4be e2df f1be a062 26bf d0a0 f43e
000001d0: f397 023f 9a92 d5be 4950 283f 094b e13e
000001e0: 61f2 253f 48c0 f23e 44d6 01bf 5c35 413f
000001f0: 39a7 333f 5724 4e3f 1463 d0be 5801 17bf
00000200: 9232 163f d541 603e 1169 fdbe 4490 88be
00000210: e9c8 673e d27d e8bc 725c 083f efb6 813e
00000220: 72aa d2be 95be 563e 38b3 113e 4d86 16be
00000230: e34a aebe f48c bf3b 66c8 0a3f 3684 02bf
00000240: 3104 ccbc 3b58 c0be 164f 4cbe e3ac 9d3e
00000250: ed70 643e f7ee 33be 65ef 423e 5c84 9d3e
00000260: ddc8 b63e 5853 d93e bdac 96be 5b38 bd3e
00000270: 7bde e03e 7929 423f 9044 ad3c 0069 02bf
00000280: 298c 2dbf dcb2 efbd 8518 093f 8848 a83e
00000290: 2fb2 06bf be8c 913d 5d7e dabe 102f c8bd
000002a0: f6ec 0b3f b497 05bf 7bed 51be fd87 6e3e
000002b0: 6c8d 713e 92d5 dbbe 11e2 19bf 9130 143f
000002c0: fb23 903e 2888 de3e 7115 9e3e 7310 b6be
000002d0: e58d bcbe 25c4 b93e 4a7b 0ebf bf81 8cbe
000002e0: 6d5d 41be 54c6 21bf f05c 003f ff9a cfbe
000002f0: 09c8 24bf bce8 2cbf afcf 9a3e 7cef 2f3f
00000300: 34bf 203f fbc5 41bd 5633 1abf 6f65 47be
00000310: 70b0 b53e 79db a8bd 8ed9 083f cdca 2e3e
00000320: 8781 01bf 230d 893e 8501 6c3e a0cc a9be
00000330: d2b1 3abe f7a6 b73e 4a12 283f 2bb4 25bf
00000340: b94f 10be 5b4c c3be 57f1 abbe dee6 093e
00000350: 1e46 753e 1377 6ebe 0fba c03e 4555 bf3e
00000360: f0b1 983e 33aa 253f a734 03bf 6dcd 2c3f
00000370: a36b 093f 2dc5 443f 6584 aebd c9b3 edbe
00000380: d9ae 3fbf 8f22 97be 2f9a 383f 1157 153f
00000390: 4f41 ffbe 04f1 483e 1f17 1ebf 4143 8bbe
000003a0: 0124 4d3f 0f1c 33bf baa4 a6be a198 d93e
000003b0: 11f6 053f afd5 10bf 318b 41bf 8bf5 163f
000003c0: a3e7 f63e 0941 5a3f bf4e d63e ab59 e0be
000003d0: cc2d 18bf d1a1 113f 542a 3cbf 3aba 02bf
000003e0: 147e 1fbf 7a1c 0cbf 31be 4c3f 971d 07bf
000003f0: b3c8 4ebf 7b27 2fbf 4d76 7a3e 2e0e 173f
0.42340556 0.20482664 -0.5830697 -0.20866087 0.3332 -0.0409937 0.3241531 0.09544021
-0.42230245 0.38916475 -0.030200997 -0.111650616 -0.07886602 0.18949696 0.58409065 -0.3495917
-0.13613124 -0.20666413 -0.28315744 0.16284066 0.28458515 -0.037873052 0.32092035 0.30536202
0.3514478 0.4370483 -0.42248946 0.5960856 0.6027446 0.64895546 -0.23543702 -0.41846162
-0.4182287 0.014421664 0.38856348 0.32495254 -0.35322645 0.1450375 -0.425675 -0.3917763
0.39078763 -0.3675885 -0.045376383 0.14707589 0.19288974 -0.13829434 -0.4803226 0.55826604
0.27788484 0.22075419 0.31764513 -0.23959821 -0.024194097 0.3317813 -0.34068015 -0.23763292
0.01459725 -0.4470497 0.39974588 -0.31345877 -0.41718435 -0.7992986 -0.024036504 0.42118925
-0.6489038 -0.31143776 0.6044573 0.2128473 -0.30807742 0.16706055 -0.3895911 -0.17724717
0.22816335 -0.20019042 -0.21296568 0.020324087 0.06599029 -0.14225698 -0.51547766 0.3934839
0.052192308 0.3076843 0.26413175 -0.16368331 -0.27958423 0.08463398 -0.1463291 -0.21116601
-0.06506655 -0.4235856 0.44318905 -0.28288296 -0.42787066 -0.7435503 0.12557466 0.3297803
0.89280814 0.10656216 -0.7020991 -0.62132233 0.4416288 -0.15618894 0.74517566 0.24499074
-0.73658043 0.51843864 0.24405827 -0.3628995 -0.30395326 0.53042716 0.5583979 -0.5847676
-0.35170782 -0.47241122 -0.6499424 0.4777894 0.51013106 -0.4171341 0.65747505 0.4400256
0.64822966 0.47412324 -0.5071757 0.75472045 0.70177037 0.805242 -0.4070059 -0.58986425
0.58670914 0.21900113 -0.49494222 -0.26672566 0.22635235 -0.028380308 0.5326606 0.2533488
-0.41145664 0.20971139 0.14228523 -0.14699669 -0.3404151 0.0058456603 0.54212034 -0.5098299
-0.024904342 -0.37567315 -0.19952044 0.30795965 0.22308703 -0.17571627 0.19036634 0.30765045
0.35700122 0.424464 -0.29428664 0.36957058 0.4391974 0.7584453 0.021150857 -0.5094147
-0.6779199 -0.117040366 0.5355304 0.32867837 -0.52615637 0.071069226 -0.42674533 -0.097746015
0.5465845 -0.52184606 -0.20500748 0.23294063 0.23589104 -0.4293638 -0.60110575 0.57886606
0.2815245 0.43463254 0.30875733 -0.35559425 -0.36827007 0.3628246 -0.55656874 -0.27442738
-0.18883295 -0.6319325 0.5014181 -0.4054794 -0.6436773 -0.67542624 0.30236575 0.687248
0.6279175 -0.04730795 -0.6023458 -0.19472288 0.35486174 -0.08244986 0.5345696 0.1706955
-0.5058827 0.26767835 0.23047455 -0.3316393 -0.18231896 0.35869572 0.65652907 -0.6472804
-0.14092912 -0.38144192 -0.33582565 0.13466975 0.23952529 -0.2328761 0.3764195 0.37369743
0.29823256 0.6471283 -0.51252216 0.67500955 0.53679866 0.76863366 -0.08521346 -0.46426228
-0.7487617 -0.29518554 0.72110265 0.5833598 -0.49854514 0.1962319 -0.6175403 -0.27199748
0.8013306 -0.6996469 -0.3254755 0.4249926 0.5232859 -0.56576055 -0.75603014 0.5896842
0.482236 0.85255486 0.41856954 -0.4381841 -0.5944488 0.5688754 -0.7350209 -0.5106541
-0.62301755 -0.5473095 0.7997771 -0.52779526 -0.8077499 -0.6841962 0.2445919 0.5900601

bias f4 [32]
00000000: bfc1 26be e466 cabc 9c88 87bb 86b6 15be
00000010: 4c72 aabd 3ca1 093e 4cb9 c0bc 24bb 123e
00000020: 3fb1 0fbc 6aa6 913d 8d19 cf3d 86bc f9bc
00000030: 84c9 783c 89b4 7fbb dfef dcbc b9da 8b3d
00000040: cc7c a63c 5ec3 053e b8df 983d c011 8abd
00000050: c65d 033d 56a3 cbbd 851e 2ebe 100d b63d
00000060: 5985 d1bd caff a43d f101 9dbd 6de5 50be
00000070: eba8 6bbd 6761 a3bd ad5d babd b05f f43d
-0.16284846 -0.024707265 -0.004136158 -0.14620408 -0.08322582 0.13440412 -0.023525856 0.14329201
-0.008770286 0.07111819 0.10112295 -0.030485403 0.015184764 -0.003901752 -0.026969848 0.068288274
0.02032318 0.13062808 0.07464546 -0.06741667 0.03207185 -0.09943263 -0.1700383 0.0888921
-0.10230512 0.080566004 -0.07666386 -0.20400019 -0.05753414 -0.079775624 -0.090998985 0.119323134

weight f4 [1, 32]
00000000: 4982 1ebf 105a 1a3f 725d ee3e 0616 20bf
00000010: 9ace 29bf c738 113f c29e 0bbf 5ec4 213f
00000020: 5e1f 3f3f 1409 193f 97ef 063f 0877 323f
00000030: 27e0 973e 815c 4ebf 239f 35bf 9d45 2b3f
00000040: 4a46 3b3f 366a 283f 4ebd 3ebf ae8b 23bf
00000050: c688 9c3e b43f 2a3f 5a10 41bf 9301 2d3f
00000060: 71cd 40bf 002b b23e dbfb 25bf be36 29bf
00000070: eea8 0c3f 2501 24bf 1ed8 18bf c25d 093f
-0.6191755 0.60293674 0.46555668 -0.62533605 -0.66330874 0.5672726 -0.5453912 0.6319026
0.7465724 0.5977948 0.52709335 0.6971288 0.29663202 -0.806099 -0.7094595 0.66903096
0.7315413 0.65787065 -0.74507606 -0.6388501 0.305731 0.66503453 -0.75415576 0.6758053
-0.7531348 0.3479843 -0.64837426 -0.66099155 0.54945266 -0.64064246 -0.5970477 0.5365869
