mlcolvar_committor/models/model_1_q.pt (torch, 23623 bytes, 6 tensors)

mass f4 [6]
22.9898 22.9898 22.9898 62581.188 62581.188 62581.188
00000000: 1ceb b741 1ceb b741 1ceb b741 3075 7447
00000010: 3075 7447 3075 7447

weight f4 [32, 6]
-0.11701324 0.19167067 0.29445535 -0.7416987 -0.45779333 0.34267047 -0.2473943 -0.034989387
-0.20087679 1.0844736 0.03593389 -0.3950837 0.15878211 0.28966433 -0.61963135 1.2161472
-0.14190255 0.02980729 -0.060952995 -0.11959525 -0.4159666 1.0834185 0.18692997 0.29595372
-0.11733178 0.4597892 0.3333943 -1.2119254 -0.12850122 -0.31282547 0.23700355 0.07346782
-0.579069 0.6648604 0.23280819 -0.1660577 -0.20645182 -0.33683372 0.31522825 -0.88969415
-0.09536017 0.32121852 0.654214 0.19610651 0.43470636 -0.43265492 -0.3344415 0.24886271
-0.1722367 0.033563823 0.08333992 -1.1485941 0.26222607 -0.34080088 0.42613953 0.38194346
-0.2002413 -1.0000134 -0.075089045 0.27039066 -0.13761999 0.23805954 -0.6082963 1.0462996
0.37233824 -0.47093177 0.13048078 0.3076723 0.30619583 0.74946594 0.019352172 0.025941001
-0.14221577 -0.30447644 0.30894446 -1.2652607 0.09300025 -0.297106 0.4004299 0.20539013
-0.14387462 1.2452109 -0.124635905 0.09627226 -0.0885043 -0.16060765 0.5030583 -1.1051675
-0.34313706 0.3614256 -0.22462256 -0.019042078 0.20181121 0.835587 0.17900679 -0.1985526
0.053446088 -0.07530507 0.40583864 -0.6221418 0.34244156 -0.0695652 -0.056026082 -0.07418383
-0.055286236 -0.9232136 -0.23189087 0.27656972 -0.117387764 0.25447518 0.45481142 -0.73344845
-0.13017018 0.2440895 -0.0039067627 -0.1483306 -0.20619114 -1.0526497 -0.43745458 0.16994546
0.0466055 0.037952196 -0.18373641 -1.1877486 -0.058618035 0.4306846 0.05946572 -0.12062118
-0.36588457 0.99590665 -0.06848397 0.42812264 -0.08327138 0.35284412 0.27877098 -1.0450788
-0.1619401 0.25628996 -0.11744738 0.055394962 -0.051484536 -0.76751614 -0.109516926 0.0976283
-0.16440398 0.3187448 0.09728271 -0.65509516 -0.34479895 0.46496898 0.3509526 0.37436754
0.12300296 -0.77282983 -0.2870195 -0.13901216 0.15811256 -0.44170523 -0.022490578 0.9046968
0.09085569 0.24511348 0.31285766 0.2705249 0.44213966 -1.095394 0.26053363 0.042246282
-0.35813698 0.39622542 0.11627493 0.78964996 0.3852166 -0.40669888 0.1423607 -0.033113472
0.2895825 -1.176452 0.23747611 -0.48942295 -0.5578575 -0.42531186 0.048411053 0.54260194
0.0015259099 -0.21898207 -0.15298459 0.26193103 -0.23439336 1.1933239 0.11462859 -0.11295157
00000000: a3a4 efbd 5145 443e dac2 963e f7df 3dbf
00000010: e363 eabe 8172 af3e ee54 7dbe 0851 0fbd
00000020: a5b2 4dbe 08d0 8a3f 6a2f 133d 6948 cabe
00000030: c797 223e e24e 943e 29a0 1ebf b6aa 9b3f
00000040: e74e 11be 6b2e f43c d9a9 79bd 5bee f4bd
00000050: 93f9 d4be 75ad 8a3f 926a 3f3e 3f87 973e
00000060: a54b f0bd 7d69 eb3e a8b2 aa3e 5f20 9bbf
00000070: d395 03be a92a a0be 0fb1 723e 4c76 963d
00000080: de3d 14bf 4b34 2a3f 4565 6e3e 080b 2abe
00000090: 1b68 53be 7875 acbe 9965 a13e ffc2 63bf
000000a0: 314c c3bd c176 a43e 927a 273f 25d0 483e
000000b0: d591 de3e f284 ddbe eb3b abbe ded5 7e3e
000000c0: d15e 30be 387a 093d 1fae aa3d 2205 93bf
000000d0: 7f42 863e 747d aebe f62e da3e 188e c33e
000000e0: 0e0c 4dbe 7000 80bf 49c8 99bd a570 8a3e
000000f0: 41ec 0cbe e1c5 733e 4eb9 1bbf 25ed 853f
00000100: 1ea3 be3e f81d f1be c19c 053e 3987 9d3e
00000110: b3c5 9c3e 00dd 3f3f 7288 9e3c 3982 d43c
00000120: 03a1 11be 56e4 9bbe f82d 9e3e 10f4 a1bf
00000130: ea76 be3d 471e 98be 2605 cd3e ca51 523e
00000140: de53 13be 1263 9f3f 1c41 ffbd 642a c53d
00000150: be41 b5bd 5576 24be 6ec8 003f 2176 8dbf
00000160: a9af afbe c70c b93e 7503 66be 22fe 9bbc
00000170: 99a7 4e3e 08e9 553f 8e4d 373e 5f51 4bbe
00000180: 49ea 5a3d 8b39 9abd 15ca cf3e af44 1fbf
00000190: 8054 af3e 3378 8ebd 9b7b 65bd b1ed 97bd
000001a0: d273 62bd ba57 6cbf cd74 6dbe 8c9a 8d3e
000001b0: ff68 f0bd 924a 823e 0bdd e83e 47c3 3bbf
000001c0: 554b 05be 99f2 793e 4d04 80bb fae3 17be
000001d0: c523 53be 3abd 86bf 0cfa dfbe 2f06 2e3e
000001e0: 69e5 3e3d c373 1b3d 6625 3cbe 2508 98bf
000001f0: 7719 70bd b182 dc3e 5492 733d 3d08 f7bd
00000200: 3955 bbbe bdf3 7e3f 5341 8cbd e432 db3e
00000210: 2f8a aabd fca7 b43e 12bb 8e3e 24c5 85bf
00000220: a0d3 25be 7038 833e 4188 f0bd d4e5 623d
00000230: 73e1 52bd f07b 44bf 694a e0bd 59f1 c73d
00000240: 8459 28be 8532 a33e 283c c73d 51b4 27bf
00000250: 7d89 b0be 6a10 ee3e 0fb0 b33e 1aad bf3e
00000260: fae8 fb3d 2dd8 45bf 38f4 92be 3459 0ebe
00000270: 42e8 213e 3027 e2be 293e b8bc 369a 673f
00000280: 8c12 ba3d 07ff 7a3e e12e a03e 3d82 8a3e
00000290: 2160 e23e df35 8cbf aa64 853e 700a 2d3d
000002a0: bb5d b7be 0fde ca3e 8d21 ee3d 8026 4a3f
000002b0: 1c3b c53e d63a d0be 01c7 113e fea1 07bd
000002c0: 2844 943e fb95 96bf f02c 733e a595 fabe
000002d0: c0cf 0ebf 7ac2 d9be ab4a 463d f6e7 0a3f
000002e0: 0a01 c83a d63c 60be fea7 1cbe d31b 863e
000002f0: d004 70be d6be 983f 65c2 ea3d 2753 e7bd

bias f4 [32]
-0.036165096 0.13967398 0.07330015 -0.25359693 0.22308919 0.22297196 -0.043834366 0.26178056
-0.03126084 0.05124679 0.13002507 -0.22423583 0.25117 -0.18461165 -0.066302024 0.07681958
0.2578236 0.18227303 -0.33803546 0.31204072 -0.11575082 -0.23838462 -0.06401954 0.16044796
-0.17984389 0.03498225 -0.23723139 -0.31558308 -0.18746997 0.23160076 -0.30035216 -0.09126427
00000000: da21 14bd b206 0f3e 641e 963d 75d7 81be
00000010: 7e71 643e c352 643e aa8b 33bd 1a08 863e
00000020: 5e0b 00bd 27e8 513d 4b25 053e 149e 65be
00000030: 5b99 803e d60a 3dbe 5bc9 87bd 9553 9d3d
00000040: 7401 843e c8a5 3a3e fc12 adbe cdc3 9f3e
00000050: c40e edbd 191b 74be ad1c 83bd 784c 243e
00000060: ff28 38be 8c49 0f3d c9ec 72be 1b94 a1be
00000070: 21f8 3fbe c028 6d3e c2c7 99be c3e8 babd

weight f4 [32, 32]
0.57345045 -2.4931297 -1.6482644 -0.7515798 0.7602727 -0.14385432 2.2357244 0.03995204
0.35773334 0.5870487 -1.3955517 -0.13011049 0.90903205 -0.672683 1.2756292 -0.027545685
0.069104806 0.35161737 0.23619132 0.17920648 0.46054605 -0.36941755 1.7695712 0.29848313
0.3445569 0.39832112 -0.2525142 0.6890665 -0.07707289 0.5049834 0.07503695 -1.935029
0.60335654 -1.190776 -1.5454683 -0.72409815 0.60360247 -0.10698553 1.313169 0.19965947
0.4088823 0.66048056 -0.8478251 -0.30194637 0.66146034 -0.854374 0.95089227 -0.20153508
0.09635531 0.23728886 0.5005287 0.31485042 0.5618185 -0.39366725 0.80815506 0.45731506
0.42857876 0.442997 -0.48712587 0.91569376 -0.41581815 0.5435525 -0.12650433 -0.8005184
-0.55975556 0.95394045 1.3123064 0.5168433 -0.6575069 0.16986798 -1.3715485 -0.13371582
-0.058092535 -0.34347582 0.82655966 0.19018447 -0.7691362 0.76108277 -0.90409154 0.18434443
-0.005211605 -0.12863635 -0.32469925 -0.13313545 -0.32791317 0.32634628 -0.95366496 -0.38861316
-0.36454156 -0.22695285 0.30553654 -0.5708374 0.17645468 -0.6883329 0.02300742 0.8221162
-0.49501008 1.0157065 1.150184 0.3586985 -0.71091086 0.29145652 -0.9180991 -0.021086846
-0.18547694 -0.593587 0.8892946 0.18677542 -0.628993 0.48896965 -0.68121153 0.23282991
0.12720795 -0.22684106 -0.16529128 -0.4085207 -0.44786632 0.44983461 -0.82311827 -0.4190466
-0.20836747 -0.33347902 0.3211399 -0.6729287 0.36342698 -0.45731372 0.14244594 0.5223693
-0.3233582 1.0362158 1.5033545 0.71791726 -0.6055954 0.06419033 -1.1281313 -0.19594026
-0.16817747 -0.35374892 0.93747616 0.22612664 -0.6274186 0.5057809 -0.7372972 0.27225056
0.04287948 -0.45539072 -0.43130207 -0.43540516 -0.34625465 0.5442766 -0.892909 -0.1682591
-0.30475348 -0.20595276 0.3854535 -0.75710356 0.22904581 -0.7221643 -0.0014188747 0.9004352
-0.4055327 1.0793586 1.5961244 0.6391673 -0.5827764 0.30004945 -1.1314675 -0.0880065
-0.0487783 -0.4900595 0.9573261 0.25056815 -0.80722785 0.5332345 -0.6036321 -0.0021791754
-0.21809472 -0.15157536 -0.2699121 -0.2688157 -0.34049293 0.4377321 -1.0075014 -0.21021101
-0.18856971 -0.029361935 0.2767493 -0.41690978 0.22997412 -0.73050994 -0.07347354 1.0007578
0.7408081 -1.2883571 -1.4623426 -0.5480359 0.7294265 -0.46105286 1.2869402 0.24047762
0.39651254 0.6337795 -0.91876185 -0.3729951 0.98793405 -0.71820897 0.8709497 -0.31508294
0.047976475 0.5510829 0.5355422 0.3520479 0.66532624 -0.6185106 1.1769043 0.593503
0.2586529 0.32656065 -0.54666585 1.0556003 -0.5303507 0.7968428 -0.22770391 -0.8639049
-0.6239837 1.0842274 1.351411 0.66193116 -0.47259966 0.27195746 -1.1129622 -0.04604742
-0.28984582 -0.4044531 1.0197518 0.180998 -0.84472346 0.7523034 -0.7788066 0.36661628
-0.10618181 -0.45934337 -0.33866358 -0.26398155 -0.42819524 0.28430742 -0.9767513 -0.2732479
-0.29663107 -0.4453165 0.29458553 -0.49572423 0.20033354 -0.6337694 0.09981586 0.8129213
00000000: a6cd 123f 708f 1fc0 54fa d2bf 8967 40bf
00000010: 3ba1 423f 8c4e 13be 1c16 0f40 c0a4 233d
00000020: d328 b73e d348 163f 70a1 b2bf af3b 05be
00000030: 53b6 683f f434 2cbf d147 a33f 7da7 e1bc
00000040: d286 8d3d 3107 b43e 23dc 713e e781 373e
00000050: b1cc eb3e 4c24 bdbe 4f81 e23f c8d2 983e
00000060: c369 b03e bff0 cb3e 8b49 81be aa66 303f
00000070: 64d8 9dbd 9846 013f f9ac 993d 08af f7bf
00000080: 9375 1a3f 596b 98bf e8d1 c5bf 7f5e 39bf
00000090: b185 1a3f 3b1b dbbd ec15 a83f 8873 4c3e
000000a0: 0559 d13e 4115 293f 110b 59bf b798 9abe
000000b0: 7755 293f 41b8 5abf ad6d 733f 365f 4ebe
000000c0: ef55 c53d dafb 723e a622 003f 1334 a13e
000000d0: 56d3 0f3f c18e c9be 40e3 4e3f 3325 ea3e
000000e0: ad6e db3e 81d0 e23e 9068 f9be e86a 6a3f
000000f0: 1ee6 d4be 4226 0b3f 5a8a 01be c6ee 4cbf
00000100: 244c 0fbf 7135 743f a8f9 a73f d84f 043f
00000110: 5f52 28bf dff1 2d3e e78e afbf cdec 08be
00000120: 70f2 6dbd 10dc afbe 6a99 533f b8bf 423e
00000130: 1ce6 44bf 52d6 423f 8b72 67bf c9c4 3c3e
00000140: 1dc6 aabb 3fb9 03be fb3e a6be a954 08be
00000150: 3ce4 a7be dc16 a73e 6323 74bf 4ef8 c6be
00000160: 31a5 babe 5466 68be 496f 9c3e 6622 12bf
00000170: 89b0 343e 9636 30bf 0f7a bc3c 3576 523f
00000180: f671 fdbe ac02 823f 3b39 933f 54a7 b73e
00000190: 41fe 35bf ca39 953e 8b08 6bbf 52be acbc
000001a0: abed 3dbe 51f5 17bf d0a8 633f 0e42 3f3e
000001b0: af05 21bf 3b5a fa3e e163 2ebf f76a 6e3e
000001c0: cd42 023e 0649 68be 1e42 29be a029 d1be
000001d0: bc4e e5be b950 e63e e1b7 52bf 478d d6be
000001e0: 485e 55be c3bd aabe 736c a43e 0e45 2cbf
000001f0: 1a13 ba3e 0625 eabe 59dd 113e ffb9 053f
00000200: 358f a5be b8a2 843f ec6d c03f 6dc9 373f
00000210: 4d08 1bbf 3876 833d 9b66 90bf 90a4 48be
00000220: b736 2cbe 941e b5be 70fe 6f3f be8d 673e
00000230: 819e 20bf db7a 013f 82bf 3cbf 6d64 8b3e
00000240: 65a2 2f3d f928 e9be a0d3 dcbe 6ded debe
00000250: 4a48 b1be b655 0b3f af95 64bf 1d4c 2cbe
00000260: a608 9cbe 48e5 52be 295a c53e 8ad1 41bf
00000270: fc8a 6a3e c2df 38bf 89f9 b9ba ec82 663f
00000280: fba1 cfbe 6c28 8a3f ce4d cc3f 78a0 233f
00000290: d630 15bf 15a0 993e edd3 90bf c03c b4bd
000002a0: c1cb 47bd 14e9 fabe 5313 753f 784a 803e
000002b0: 7ca6 4ebf 0e82 083f a287 1abf 7fd0 0ebb
000002c0: 3954 5fbe 9236 1bbe eb31 8abe 36a2 89be
000002d0: 1755 aebe 6c1e e03e cef5 80bf 8e41 57be
000002e0: 6b18 41be 7188 f0bc 16b2 8d3e 3375 d5be
000002f0: 567e 6b3e b302 3bbf 4c79 96bd d518 803f
00000300: 9aa5 3d3f e3e8 a4bf 0b2e bbbf 154c 0cbf
00000310: b2bb 3a3f 1f0f ecbe 75ba a43f c43f 763e
00000320: b103 cb3e 603f 223f fa33 6bbf 37f9 bebe
00000330: 3fe9 7c3f 8bdc 37bf 8ff6 5e3f 8d52 a1be
00000340: fb82 443d c513 0d3f 4b19 093f 9f3f b43e
00000350: d252 2a3f b656 1ebf cda4 963f d0ef 173f
00000360: 276e 843e f532 a73e 4bf2 0bbf e91d 873f
00000370: 10c5 07bf e4fd 4b3f 372b 69be df28 5dbf
00000380: 65bd 1fbf f7c7 8a3f 09fb ac3f 5274 293f
00000390: 95f8 f1be 023e 8b3e 8c75 8ebf 389c 3cbd
000003a0: ac66 94be 7a14 cfbe 3a87 823f 8a57 393e
000003b0: cc3f 58bf f596 403f df5f 47bf 21b5 bb3e
000003c0: d975 d9bd 0e2f ebbe 5065 adbe 9728 87be
000003d0: 683c dbbe be90 913e 600c 7abf 26e7 8bbe
000003e0: 07e0 97be 8600 e4be ead3 963e 91cf fdbe
000003f0: 3c24 4d3e b63e 22bf 426c cc3d 9c1b 503f

bias f4 [32]
0.08423598 0.045652583 -0.010157556 -0.09031233 -0.019226879 0.13581644 0.01021588 -0.07098833
0.13666795 -0.007325423 0.0023060783 -0.0032432545 0.08500793 -0.08207162 0.0026554149 0.029936718
0.16592467 0.06576605 0.09427273 0.07327792 0.008916856 0.05014045 0.036714207 -0.092772044
-0.0045515704 -0.105790734 0.02470358 -0.026745925 0.12151328 -0.06961983 0.03966796 0.019525038
00000000: ea83 ac3d 34fe 3a3d e16b 26bc acf5 b8bd
00000010: b081 9dbc 7713 0b3e 8260 273c 5462 91bd
00000020: aff2 0b3e 1a0a f0bb 9321 173b c88c 54bb
00000030: a318 ae3d 2a15 a8bd 7806 2e3b d93d f53c
00000040: 28e8 293e 5ab0 863d 1012 c13d bc12 963d
00000050: 0118 123c 1360 4d3d a361 163d 45ff bdbd
00000060: 5725 95bb d0a8 d8bd 2a5f ca3c 451a dbbc
00000070: f4db f83d d794 8ebd df7a 223d f9f2 9f3c

weight f4 [1, 32]
1.1793084 0.9274425 -1.0706263 -0.8870191 -0.99931604 -1.3811989 0.906884 -0.81299865
1.2907753 -1.3784322 1.0117509 1.0012763 0.9211606 1.1345426 -1.4988316 -0.9974016
-1.0497699 1.2726778 -1.0113254 -1.0218142 -0.98033214 0.76963675 0.97399384 0.90642047
0.7379778 1.1449277 0.9899132 0.9064304 0.9606867 1.2829391 -0.93738055 -1.2583275
00000000: 94f3 963f df6c 6d3f 480a 89bf af13 63bf
00000010: 2dd3 7fbf 20cb b0bf 8d29 683f ae20 50bf
00000020: 2038 a53f 7770 b0bf 0e81 813f d229 803f
00000030: 2ed1 6b3f b138 913f b7d9 bfbf b655 7fbf
00000040: dc5e 86bf 1be7 a23f 1c73 81bf cfca 82bf
00000050: 0cf7 7abf ea06 453f a957 793f 2c0b 683f
00000060: 1dec 3c3f fe8c 923f f46a 7d3f d30b 683f
00000070: 90ef 753f 5937 a43f 2cf8 6fbf e010 a1bf
