mlcolvar_committor/models/model_3_q.pt (torch, 23687 bytes, 6 tensors)

mass f4 [6]
0	0x41b7eb1c	22.9898
1	0x41b7eb1c	22.9898
2	0x41b7eb1c	22.9898
3	0x47747530	62581.188
4	0x47747530	62581.188
5	0x47747530	62581.188

weight f4 [32, 6]
0	0xbe6c0a03	-0.23050694
1	0xbeb4e5b6	-0.35331506
2	0xbd32337a	-0.043506123
3	0x3f80589b	1.002704
4	0x3e9c3fb7	0.3051736
5	0xbe412267	-0.1886078
6	0xbdadb2ef	-0.084813945
7	0xbdf51ae0	-0.119680166
8	0xbd21b621	-0.039480332
9	0xbf0b77cd	-0.54479676
10	0xbeeee406	-0.46658343
11	0x3e6a0bce	0.22856066
12	0xbd393559	-0.045216892
13	0x3a80a908	0.0009816
14	0x3e842ba9	0.2581456
15	0xbfac324c	-1.3452849
16	0x3e5303e0	0.20606947
17	0x3e1e6346	0.15467557
18	0xbe20aff3	-0.1569212
19	0x3e61e2b6	0.2205914
20	0x3eb05a6c	0.34443986
21	0xbf9a78ea	-1.206815
22	0x3ca04a2e	0.019566622
23	0x3e038845	0.12844951
24	0x3e9ddbbd	0.3083171
25	0xbe4a4ce9	-0.19755901
26	0x3e734cb9	0.23759736
27	0xbf9f42b5	-1.2442232
28	0xbeb3897f	-0.3506584
29	0x3e25c59a	0.1618866
30	0xbec86333	-0.39138183
31	0x3e23488f	0.15945648
32	0x3e2481a0	0.16065073
33	0x3f9e47dd	1.2365681
34	0x3dfd9745	0.12382368
35	0xbe03c965	-0.12869795
36	0xbe8ff45c	-0.2811612
37	0x3cf4be9d	0.029876048
38	0x3cf0d49e	0.029398259
39	0xbf22ac60	-0.63544273
40	0xbef9b763	-0.48772725
41	0xbca439c7	-0.020047082
42	0x3e8ea317	0.27858803
43	0xbe7bb0d6	-0.24579176
44	0x3df584ca	0.11988218
45	0x3fb0abd4	1.3802438
46	0xbe41d1e4	-0.18927723
47	0xbe4e0285	-0.20118149
48	0x3e941afc	0.28926837
49	0x3e56e42a	0.20985475
50	0x3e7fe18a	0.2498838
51	0xbf3806e6	-0.71885526
52	0xbeaa9bf8	-0.3332212
53	0x3e3040c6	0.17212209
54	0x3e5a4a1c	0.21317333
55	0xbe60165e	-0.21883532
56	0x3e2628f0	0.16226554
57	0x3f7e86b3	0.99424285
58	0x3e7764c5	0.24159534
59	0xbe3df516	-0.18550524
60	0xbd1b5f88	-0.037932903
61	0x3e850959	0.25983694
62	0x3e1d3dad	0.15355559
63	0x3fa91e37	1.3212346
64	0xbda8d50b	-0.0824376
65	0xbebb3b98	-0.36568904
66	0xbe924b35	-0.28573003
67	0xbdaf2a99	-0.08553047
68	0x3c46638c	0.012108695
69	0xbf8c22b5	-1.0948092
70	0xbda29555	-0.07938639
71	0xbdbe0ba2	-0.092795625
72	0xbe3a2609	-0.18178572
73	0x3e2c00c6	0.1679717
74	0x3cf1ede8	0.029532388
75	0x3fb04f99	1.3774291
76	0xbde03c44	-0.10948995
77	0xbda4ac27	-0.08040648
78	0xbea49d03	-0.3215104
79	0x3e073c97	0.13206707
80	0xbea6ab18	-0.3255241
81	0x3eb313e1	0.34976104
82	0x3f07ee7a	0.5309826
83	0xbe0b7f66	-0.13622817
84	0x3e80d001	0.25158694
85	0x3e72ddf4	0.23717481
86	0xbd8cf5e6	-0.06882839
87	0x3f90a227	1.1299485
88	0x3e127613	0.14302854
89	0xbe43b9b6	-0.19113812
90	0x3e7ce137	0.24695288
91	0x3d12785e	0.035759322
92	0x3e7ac0c8	0.24487603
93	0x3f1df639	0.6170383
94	0x3f0a3f2d	0.5400265
95	0xbf08330c	-0.5320289
96	0xbe22ab72	-0.15885714
97	0xbd002916	-0.031289183
98	0x3e7a91d7	0.24469696
99	0x3f11bb01	0.5692597
100	0x3eee39c9	0.46528462
101	0xbe831554	-0.2560221
102	0x3e19cb0f	0.15018867
103	0xbd34ffe7	-0.04418936
104	0x3ee179ef	0.4403834
105	0xbf7f6f6b	-0.99779385
106	0xbe45c526	-0.19313487
107	0x3dabad33	0.083826445
108	0x3d894af8	0.06703752
109	0xbe8075a6	-0.2508976
110	0xbe35ba6d	-0.17746897
111	0x3f8fd0e5	1.1235625
112	0x3eae326e	0.3402285
113	0xbc987be0	-0.018613756
114	0x3e626cea	0.2211186
115	0x3ed6443c	0.41848934
116	0x3e5e69a9	0.21719994
117	0x3f6753a1	0.9036198
118	0x3eb45d97	0.35227653
119	0xbd823efa	-0.06359668
120	0x3e7e588f	0.2483847
121	0x3d57fffa	0.052734353
122	0xbe836903	-0.25666055
123	0x3faca142	1.3486712
124	0xbeaa516d	-0.33265248
125	0xbd84b4da	-0.06479807
126	0x3d5c0ed0	0.053725064
127	0x3e8be7d4	0.27325308
128	0x3c7c75bf	0.015408932
129	0xbfb0b346	-1.380471
130	0x3dad71d9	0.0846898
131	0xbd2e4c12	-0.042553015
132	0x3e70b940	0.23508167
133	0xbeb432f9	-0.3519514
134	0x3ed905ef	0.4238734
135	0xbeefbae2	-0.46822268
136	0xbef25d7c	-0.47336948
137	0x3e5e749c	0.2172417
138	0xbeb3622b	-0.35035834
139	0x3b3b8fd1	0.0028619657
140	0xbe63b718	-0.22237813
141	0xbfa87221	-1.3159829
142	0x3e7ab490	0.24482942
143	0xbd32dffd	-0.043670643
144	0xbeb8ede6	-0.36119002
145	0xbd91be0f	-0.07116329
146	0xbe8e92cf	-0.2784638
147	0x3f789b41	0.971119
148	0x3efb1814	0.49041808
149	0xbeee01ab	-0.46485648
150	0xbe08c6c2	-0.1335707
151	0xbdc4beb9	-0.0960669
152	0xbde41d46	-0.11138396
153	0x3f94ffde	1.1640584
154	0x3acd6f19	0.0015673368
155	0xbe5f215f	-0.21790074
156	0x3ea67037	0.32507488
157	0x3d9af7a4	0.07566765
158	0xbe885137	-0.26624462
159	0xbf6785c6	-0.904385
160	0xbee16f40	-0.4403019
161	0x3ba92944	0.00516239
162	0x3d61c76c	0.055121824
163	0x3de4f54b	0.111795984
164	0xbdd2d4e9	-0.10294516
165	0x3eb4b1da	0.3529194
166	0x3eeba747	0.4602606
167	0x3c7250a7	0.014789737
168	0x3db550e1	0.08853317
169	0x3df08025	0.11743192
170	0x3e8cc57e	0.27494425
171	0x3f45efda	0.7731911
172	0x3f068663	0.5254881
173	0xbe3156e3	-0.17318301
174	0xbecc7c21	-0.39938453
175	0x3e188be7	0.14897119
176	0xbad00dd1	-0.0015873258
177	0x3f9691ef	1.1763285
178	0x3e304c56	0.1721662
179	0xbda79a9d	-0.08183787
180	0xbe971dbf	-0.29514882
181	0xbd5e3ac3	-0.05425526
182	0xbec18533	-0.37796935
183	0xbf89ea60	-1.077465
184	0xbe8ebbd2	-0.2787767
185	0x3d366705	0.04453184
186	0x3d9c7749	0.07639939
187	0x3d97c7de	0.074111685
188	0xbea70b25	-0.3262569
189	0x3f6d30c1	0.9265252
190	0x3e359d88	0.17735875
191	0xbde21bb3	-0.110404395

bias f4 [32]
0	0x3c074208	0.008255489
1	0x3d0b2b75	0.03397699
2	0xbd9f05d8	-0.077647865
3	0xbc4ad95a	-0.012380922
4	0x3e648f92	0.22320393
5	0xbde5c0e9	-0.11218435
6	0x3e8199fe	0.253128
7	0xba39f878	-0.00070942147
8	0x3cb915c0	0.022593379
9	0xbdfc40a4	-0.12317017
10	0x3d492104	0.04910375
11	0x3e9b6f4b	0.30358347
12	0xbe355206	-0.1770707
13	0x3cf0a6ac	0.02937635
14	0xbe40e79d	-0.18838353
15	0xbdbdeada	-0.0927331
16	0xbe3bf795	-0.18356164
17	0x3cb1b45a	0.021692444
18	0xbe644b2a	-0.22294298
19	0xbed76e5a	-0.4207638
20	0xbc2a4617	-0.010392687
21	0xbc17731b	-0.009243752
22	0x3dc7c414	0.09754196
23	0x3e17f578	0.14839733
24	0x3d099b53	0.033595394
25	0x3e361dd6	0.17784819
26	0x3ebfb161	0.37440017
27	0xbe12e84c	-0.14346427
28	0xbea2f049	-0.31823948
29	0xbdf84c9f	-0.12123989
30	0x3ecb3999	0.3969238
31	0x3e61f203	0.22064976

weight f4 [32, 32]
0	0x3eeb2e4f	0.45933768
1	0xbd943063	-0.072357915
2	0xbf2a9345	-0.66630965
3	0xbed2591e	-0.41083616
4	0xbec3be5c	-0.3823117
5	0x3ea9727c	0.33095157
6	0xbe909b79	-0.28243616
7	0x3f464fe9	0.77465683
8	0xbeffb8ad	-0.49945584
9	0x3eed7a83	0.46382532
10	0x3e693c63	0.22776942
11	0xbf1e7012	-0.61889756
12	0x3f0b96dc	0.5452707
13	0x3e866fe5	0.26257244
14	0x3f171b61	0.5902615
15	0x3e8d15ec	0.27555788
16	0x3e03d6f0	0.12874961
17	0xbf15d49d	-0.5852755
18	0x3f023a1c	0.5086992
19	0x3f01aee7	0.50657505
20	0x3dc4f5c1	0.09617186
21	0xbe9834d9	-0.2972782
22	0xbeb784fa	-0.3584364
23	0xbf3e9f89	-0.7446218
24	0x3e9a3743	0.30120286
25	0x3ee95453	0.45572147
26	0xbeefaa23	-0.46809492
27	0x3e37b802	0.17941287
28	0x3edf6361	0.43630508
29	0x3ea5244f	0.32254264
30	0xbea01122	-0.3126307
31	0x3d11d3cf	0.035602387
32	0x3f60afe1	0.8776837
33	0xbede676b	-0.43438277
34	0xbf93ff4e	-1.1562288
35	0xbf802aca	-1.0013058
36	0xbf83e580	-1.0304413
37	0x3f67f3c9	0.9060636
38	0xbf474322	-0.7783681
39	0x3fbc94b6	1.4732883
40	0xbf879512	-1.0592368
41	0x3f86f781	1.0544282
42	0x3f4956ce	0.7864808
43	0xbf716d85	-0.9430774
44	0x3f566a3f	0.8375587
45	0x3ea5fdef	0.32420298
46	0x3f9474ef	1.1598185
47	0x3f6452b4	0.89188695
48	0x3f12601d	0.5717791
49	0xbf85c457	-1.0450543
50	0x3f568e82	0.838112
51	0x3f957d14	1.1678796
52	0x3f325608	0.69662523
53	0xbf61ec6f	-0.88251394
54	0xbf1318b8	-0.5745959
55	0xbfa526c0	-1.290245
56	0x3f546e28	0.82980585
57	0x3f6371f1	0.88845736
58	0xbf55ca10	-0.8351145
59	0x3ec05523	0.37564954
60	0x3f6ea368	0.9321809
61	0x3f71a273	0.943885
62	0xbfa2e581	-1.2726289
63	0x3ee700de	0.4511785
64	0xbf009aa3	-0.50235957
65	0x3e28e7c4	0.16494662
66	0x3f148c95	0.5802701
67	0x3f081ad4	0.53165936
68	0x3e97a4af	0.2961783
69	0xbefe0b94	-0.49618208
70	0x3ee80b8e	0.45321316
71	0xbf342790	-0.7037287
72	0x3f00300b	0.5007331
73	0xbf18ed94	-0.59737515
74	0xbe523593	-0.2052825
75	0x3ef5e0fa	0.48023206
76	0xbf07a9d4	-0.5299351
77	0xbd2dc1be	-0.042421095
78	0xbf028db6	-0.50997484
79	0xbe7b3414	-0.24531585
80	0xbe1f249a	-0.15541306
81	0x3f257156	0.6462606
82	0xbeb221fd	-0.34791556
83	0xbf08a78c	-0.53380656
84	0xbe929981	-0.2863274
85	0x3f1d0ba7	0.61345905
86	0x3e7a73f6	0.24458298
87	0x3f1f2092	0.62159073
88	0xbeb13230	-0.34608603
89	0xbea0b4b5	-0.3138787
90	0x3ef555f9	0.47917154
91	0xbe3bdd3f	-0.18346117
92	0xbecf7b9f	-0.40524003
93	0xbf177fe4	-0.5917952
94	0x3f11d1ad	0.56960565
95	0xbd5a2dad	-0.053266216
96	0xbefde7de	-0.49590963
97	0x3e19956c	0.14998406
98	0x3f4b0aa9	0.7931314
99	0x3f2c3d67	0.6728119
100	0x3edd2216	0.43190068
101	0xbf04de4f	-0.51901716
102	0x3e7ed271	0.24884965
103	0xbf43fe20	-0.7655964
104	0x3f14af4f	0.5808
105	0xbf1a3e9f	-0.602518
106	0xbe9f5c1e	-0.31124967
107	0x3f1184dd	0.5684336
108	0xbed87cc5	-0.42282692
109	0xbe67d38a	-0.2263929
110	0xbee5fc74	-0.4491917
111	0xbe84c012	-0.25927788
112	0xbed2d7e5	-0.4118034
113	0x3f27eef9	0.6559902
114	0xbf079fe9	-0.5297838
115	0xbefd364c	-0.49455488
116	0xbec40885	-0.3828775
117	0x3f1b461f	0.6065387
118	0x3eb22177	0.34791157
119	0x3f42a9fd	0.7604063
120	0xbf1d6dfc	-0.6149595
121	0xbe7b0c9c	-0.24516529
122	0x3f01a6e8	0.50645304
123	0xbe288a13	-0.16458921
124	0xbe86eee6	-0.2635414
125	0xbf2cc292	-0.6748439
126	0x3ee8c375	0.45461622
127	0xbe81ea74	-0.25374186
128	0x3f07b085	0.5300372
129	0xbd885a43	-0.06657841
130	0xbf0fc566	-0.5616058
131	0xbf232494	-0.6372769
132	0xbed2f621	-0.41203406
133	0x3f2093e2	0.6272565
134	0xbee28ec1	-0.44249538
135	0x3f3056fc	0.6888273
136	0xbef4e736	-0.4783265
137	0x3f214430	0.6299467
138	0x3e1840d0	0.14868474
139	0xbf15785b	-0.5838677
140	0x3eb5f770	0.35540342
141	0x3e88c2ec	0.26711214
142	0x3f0a9418	0.54132223
143	0x3ebb5e3f	0.36595342
144	0x3e7532e6	0.23945197
145	0xbf021207	-0.5080876
146	0x3f18852e	0.59578216
147	0x3effb318	0.49941325
148	0x3e80c30d	0.25148812
149	0xbec0bb08	-0.37642694
150	0xbe87cd12	-0.26523644
151	0xbf630e3c	-0.88693595
152	0x3f0b243f	0.5435218
153	0x3f015901	0.50526434
154	0xbebaf6f8	-0.36516547
155	0x3e4f007b	0.20215027
156	0x3ee5bed1	0.44872144
157	0x3ed6e05f	0.41968057
158	0xbf0691bb	-0.5256612
159	0x3d3d7b35	0.046260078
160	0x3f073fe0	0.5283184
161	0xbd65c5cc	-0.056096837
162	0xbf20eff9	-0.6286617
163	0xbf1da074	-0.6157296
164	0xbefa20f7	-0.48853275
165	0x3f107b68	0.56438303
166	0xbedff8c4	-0.4374448
167	0x3f2a1da2	0.66451466
168	0xbe9c05b8	-0.30473113
169	0x3ebcfd88	0.3691218
170	0x3e8ae806	0.27130145
171	0xbef7693a	-0.4832247
172	0x3e696e20	0.22795916
173	0x3e2e480b	0.1701967
174	0x3e935476	0.28775376
175	0x3e9921b3	0.29908523
176	0x3eb67344	0.35634816
177	0xbf0c9a7e	-0.54923236
178	0x3efda23d	0.4953784
179	0x3eaf9df9	0.3430021
180	0x3e69b796	0.22823939
181	0xbf010838	-0.50403166
182	0xbdbe0a7f	-0.09279346
183	0xbf232050	-0.6372118
184	0x3ec276ef	0.37981364
185	0x3ebdaea0	0.3704729
186	0xbecf626f	-0.40504786
187	0x3e3b3df0	0.18285346
188	0x3e7520b1	0.23938252
189	0x3ef6f77b	0.48235688
190	0xbec5a5a6	-0.38602942
191	0x3e791c84	0.24327284
192	0xbeeb89da	-0.4600361
193	0x3ebfac61	0.37436202
194	0x3f2896d8	0.6585517
195	0x3f2d9e8a	0.67820036
196	0x3f1b9274	0.60770345
197	0xbf139ee1	-0.57664305
198	0x3eb1aa48	0.34700227
199	0xbf47f96d	-0.7811497
200	0x3f2a85f2	0.66610634
201	0xbf21c9db	-0.6319863
202	0xbeb0cb5b	-0.34530148
203	0x3f223556	0.63362634
204	0xbf28dee2	-0.6596509
205	0xbe00cd32	-0.12578276
206	0xbf09ed5d	-0.5387781
207	0xbead7614	-0.3387915
208	0xbeb00a83	-0.3438302
209	0x3f4b462a	0.79403937
210	0xbf06251b	-0.5240037
211	0xbf143109	-0.5788732
212	0xbe4d7d48	-0.20067322
213	0x3f05d68d	0.52280504
214	0x3ee4a8eb	0.44660124
215	0x3f6ae433	0.91754454
216	0xbf34ea74	-0.7067025
217	0xbf0ecce9	-0.5578142
218	0x3ed29e8b	0.41136584
219	0xbe15af36	-0.14617619
220	0xbebb373a	-0.36565572
221	0xbf4a43a6	-0.79009473
222	0x3f0c6645	0.5484355
223	0xbe42be2f	-0.19017862
224	0x3eb30f4e	0.34972614
225	0xbe4dfdf9	-0.20116414
226	0xbf288484	-0.658272
227	0xbf144b30	-0.5792723
228	0xbebbd8d9	-0.3668888
229	0x3ef462cf	0.47731635
230	0xbef4289a	-0.47687227
231	0x3f311761	0.691763
232	0xbefb3602	-0.49064642
233	0x3f084449	0.53229195
234	0x3e7157ef	0.235687
235	0xbed6ee5f	-0.41978738
236	0x3ee300de	0.443366
237	0x3e4630a4	0.19354492
238	0x3eafc300	0.3432846
239	0x3ed2900e	0.4112553
240	0x3e2bf55b	0.16792814
241	0xbed5e577	-0.4177663
242	0x3e6730ad	0.22577162
243	0x3f042870	0.516242
244	0x3e0f05b6	0.13967022
245	0xbec1959a	-0.3780945
246	0xbe95d727	-0.2926571
247	0xbf275f95	-0.6538022
248	0x3e84d14e	0.25940937
249	0x3ee48f13	0.44640407
250	0xbea7fa3f	-0.3280811
251	0x3e0a7249	0.13520159
252	0x3ea40450	0.3203454
253	0x3f0aa01f	0.54150575
254	0xbec0e767	-0.37676546
255	0x3de37e02	0.111080185

bias f4 [32]
0	0x3d747509	0.059681926
1	0xbe178e23	-0.14800315
2	0xbc89f948	-0.0168425
3	0x3cf12c7a	0.029440153
4	0xbc484d53	-0.012225467
5	0xbde98e7d	-0.114041306
6	0x3d85194d	0.06498966
7	0xbda6548d	-0.081215955
8	0xbe0183c5	-0.12647922
9	0x3caf0f29	0.021369534
10	0xbdcaa4e1	-0.098947294
11	0xbe02d25a	-0.12775555
12	0x3e2ce73d	0.16885085
13	0xbd4eb4a3	-0.050465237
14	0xbdaebeef	-0.085325114
15	0xbc9cd184	-0.019142874
16	0xbc34c2b3	-0.011032748
17	0x3d6c20a1	0.057648305
18	0xbd1b8399	-0.0379673
19	0xbd1e5b47	-0.038661268
20	0x3d6033ed	0.05473702
21	0xbe061fd0	-0.13098073
22	0xbdc6dbc3	-0.09709885
23	0x3cf3c3b3	0.029756403
24	0x3ce65c6e	0.028120246
25	0x3ce08564	0.027407356
26	0x3e26b9a7	0.16281758
27	0xbd84b1f2	-0.06479253
28	0xbd3a8c9c	-0.04554425
29	0xbc80b07d	-0.015709156
30	0x3d3299b3	0.04360361
31	0xbdcda094	-0.100403935

weight f4 [1, 32]
0	0xbf47c880	-0.78040314
1	0xbfe334ed	-1.7750527
2	0x3f577cb4	0.84174657
3	0x3f307002	0.6892091
4	0xbf3fd432	-0.7493316
5	0xbf438b44	-0.7638438
6	0x3f3ae40f	0.7300424
7	0xbf5f8ab6	-0.8732103
8	0xbf391e50	-0.7231188
9	0xbf5d9979	-0.86562306
10	0xbf34b396	-0.70586526
11	0xbf609cb6	-0.8773912
12	0x3f52b0b4	0.8230088
13	0xbf44fd68	-0.7694917
14	0xbf61665b	-0.8804681
15	0x3f4f4c74	0.80976033
16	0x3f502423	0.8130514
17	0x3f537526	0.8260063
18	0x3f4ea1e2	0.80715764
19	0xbf37b4a2	-0.7176
20	0x3f361e8d	0.71140367
21	0xbf51d633	-0.8196747
22	0xbf34d873	-0.70642775
23	0x3f4ad761	0.7923489
24	0x3f8023b0	1.0010891
25	0xbf537efd	-0.82615644
26	0x3f4ddc5b	0.8041436
27	0x3f53dc05	0.827576
28	0x3f4b9352	0.7952167
29	0x3f859747	1.0436791
30	0x3f7b4c95	0.9816373
31	0xbf59bed5	-0.8505681
